final.pth (torch_old, 205727 bytes, 8 tensors)

fc1.weight f4 [256, 37]
0	0x3e472bed	0.1945035
1	0x3d6d394e	0.057915978
2	0xbe0bb8d2	-0.13644722
3	0xbeb0433f	-0.34426305
4	0xbdb5c5e2	-0.08875634
5	0x3e0c5db9	0.13707627
6	0xbe53dbec	-0.20689362
7	0x3e9eeb60	0.31038952
8	0xbc614eb2	-0.013751673
9	0xbe901eaa	-0.28148395
10	0x3dba590b	0.09099015
11	0xbe8147aa	-0.25249988
12	0xbe29a78b	-0.16567819
13	0x3af446a2	0.0018636773
14	0xbecd36bb	-0.4008082
15	0x3ddf175a	0.10893126
16	0x3d8dbe70	0.06921089
17	0x3c21dd6c	0.009879451
18	0x3e2f3224	0.17108971
19	0xbeb06925	-0.3445522
20	0x3cccdbc5	0.025007138
21	0x3da2b0ee	0.07943903
22	0xbdc2c5aa	-0.09510358
23	0x3f020b3e	0.50798404
24	0x3d15dadf	0.036585685
25	0xbe416267	-0.18885194
26	0x3ec7e54c	0.39042127
27	0xbb2a34a3	-0.0025971315
28	0xbdcf99b3	-0.10136738
29	0x3be7d0bb	0.007074443
30	0x3c34429f	0.011002212
31	0x3e50408e	0.20337126
32	0xbe3be59c	-0.18349308
33	0xbe4bb626	-0.19893703
34	0xbe285faa	-0.16442743
35	0xbe2f26d0	-0.1710465
36	0xbdeb2cae	-0.11483131
37	0x3e804777	0.25054523
38	0x3c29d438	0.010365538
39	0x3cee0037	0.029052837
40	0x3c4842d6	0.012222966
41	0xbf0f37fd	-0.55944806
42	0x3e0b324d	0.13593407
43	0xbd12b3c4	-0.03581597
44	0xbe85a121	-0.26099494
45	0xbf01dfcf	-0.5073213
46	0xbf02a40e	-0.5103158
47	0x3e9479bf	0.28999135
48	0x3d672cff	0.056439396
49	0xbd838cb7	-0.064233236
50	0xbe2a536b	-0.16633384
51	0x3dce28ff	0.10066413
52	0x3d858b53	0.065207146
53	0x3e275f37	0.16344915
54	0xbc92574e	-0.017863896
55	0xbe16f9ac	-0.1474368
56	0x3e6b459f	0.22975777
57	0x3d11eb69	0.035624895
58	0xbe552af0	-0.2081716
59	0xbe78ed2d	-0.24309225
60	0x3e04c0a3	0.1296411
61	0x3ebe1c9b	0.371312
62	0xbd756978	-0.059915036
63	0x3e1d5042	0.15362647
64	0x3d5a4d00	0.05329609
65	0xbd39aad5	-0.045328934
66	0x3dbcb0ac	0.09213385
67	0x3d73322e	0.059374027
68	0x3e934729	0.28765228
69	0x3deb8c8f	0.11501419
70	0xbe97a8a2	-0.29620844
71	0xbe68fdbc	-0.22753042
72	0x3de34130	0.11096418
73	0xbc711e1d	-0.014716652
74	0x3cf6de62	0.030135337
75	0x3d8ab0dc	0.067720145
76	0x3cc49811	0.023998292
77	0xbd892e95	-0.06698338
78	0x3e4e7fc8	0.20165932
79	0xbe6611d5	-0.2246774
80	0xbe2b785e	-0.16745135
81	0x3eb5b49e	0.35489362
82	0xbe12d655	-0.14339574
83	0xbeda0ab0	-0.4258628
84	0x3c79fdec	0.015258294
85	0xbcd0f07e	-0.0255053
86	0xbe347d85	-0.17626007
87	0xbe1ef5dc	-0.15523475
88	0x3e9f9334	0.31166995
89	0xbe02839d	-0.12745519
90	0x3d02b684	0.03191234
91	0xbd6cd342	-0.05781866
92	0x3e540330	0.20704341
93	0x3e83bd15	0.25730196
94	0xbed27ba4	-0.41109955
95	0x3e5c7844	0.21530253
96	0xbd430590	-0.047612727
97	0xbe8d7d56	-0.27634686
98	0x3d0e1121	0.034684304
99	0xbe4f81cd	-0.20264359
100	0x3e4cc959	0.19998683
101	0xbe063424	-0.13105828
102	0x3db77fe7	0.08959942
103	0xbe3bd8b3	-0.18344383
104	0xbec21ccb	-0.37912592
105	0x3d9eeccc	0.07760009
106	0xbded399e	-0.11583255
107	0xbee73573	-0.45157966
108	0x3e9ec5f8	0.31010413
109	0x3cf2950d	0.029612089
110	0xbd13d238	-0.036089152
111	0xbc081f42	-0.008308234
112	0xbe60ffad	-0.21972533
113	0x3e8438b2	0.25824505
114	0xbc3117c1	-0.010808886
115	0x3b481194	0.0030528056
116	0xbee4df60	-0.44701672
117	0x3e2be315	0.16785844
118	0x3d5cb817	0.0538865
119	0x3c858ba7	0.016301943
120	0x3e97caa8	0.29646802
121	0xbe0f5c17	-0.13999973
122	0xbe84dd48	-0.25950074
123	0x3e83f85b	0.25775418
124	0xbe7dc87d	-0.24783511
125	0xbe5c2575	-0.21498664
126	0xbe028d10	-0.12749124
127	0xbe601c99	-0.21885909
128	0x3d9a4076	0.07531826
129	0xbe770072	-0.24121264
130	0xbcc37b1e	-0.023862418
131	0x3dcd7c3a	0.1003346
132	0xbf2b03af	-0.66802496
133	0xbcebdb5c	-0.028791122
134	0x3d8eeba4	0.06978539
135	0xbf16093d	-0.58607846
136	0xbe869630	-0.2628646
137	0xbe0439c6	-0.12912664
138	0x3e3079f1	0.17234017
139	0x3e09ed0a	0.1346933
140	0x3e3e559d	0.18587346
141	0xbddcd05f	-0.10781931
142	0x3c521403	0.012822154
143	0x3cc79acb	0.024365803
144	0x3dc65a83	0.096852325
145	0xbe1c3b02	-0.15256885
146	0x3e7a1dbb	0.24425404
147	0xbd0591d9	-0.032609794
148	0xbbc85785	-0.0061139488
149	0xbc646d6b	-0.013942103
150	0xbdbbec6f	-0.091759555
151	0xbdf38d04	-0.11892131
152	0x3dce9dd9	0.10088701
153	0x3ee2c142	0.4428807
154	0xbf01b0bd	-0.50660306
155	0xbf44160a	-0.7659613
156	0xbeec1bd6	-0.46114987
157	0xbff68513	-1.9259361
158	0x3d01d3e3	0.03169621
159	0x3cfe54ae	0.031046238
160	0x3da96808	0.082717955
161	0xbd9105df	-0.07081198
162	0xbd370e7b	-0.044691544
163	0xbd7ed3fc	-0.062213883
164	0x3d67d653	0.05660088
165	0xba8d2e38	-0.001077122
166	0x3dd3eae2	0.10347535
167	0x3e3cf08f	0.18451141
168	0xbc9b38b4	-0.018947937
169	0x3da24dee	0.0792502
170	0x3e2f1355	0.17097218
171	0xbd4044e6	-0.046940707
172	0x3e86b64c	0.26310956
173	0x3de65623	0.11246898
174	0x3df2f3aa	0.118628815
175	0x3d9decee	0.077112064
176	0x3e063a63	0.1310821
177	0xbcd3d87d	-0.025860066
178	0x3e47e88b	0.19522302
179	0xbd5d39f3	-0.054010343
180	0x3e38b0b7	0.18036161
181	0xbd398e3a	-0.045301653
182	0x3e2cf0bc	0.16888708
183	0xbc8ce415	-0.017198602
184	0x3c1abe54	0.009444792
185	0x3d9b201b	0.07574483
186	0xbd9ad76c	-0.0756062
187	0xbe7a1d27	-0.24425183
188	0xbe52a78e	-0.2057173
189	0x3dae6343	0.085150264
190	0x3dbeb7fc	0.09312436
191	0xbf1c773b	-0.6111943
192	0x3ddd232b	0.107977234
193	0xbebd81bc	-0.37013042
194	0xbf8664ad	-1.0499474
195	0xbde3e496	-0.11127584
196	0xbebe0535	-0.37113348
197	0xbc4375f4	-0.011929978
198	0x3b98c896	0.0046625836
199	0xbebdfaca	-0.371054
200	0x3ca5b163	0.020226186
201	0x3e2a1dc8	0.16612923
202	0xbebc0001	-0.36718753
203	0xbe996c91	-0.29965642
204	0x3e04d53b	0.12971966
205	0x3e238d0b	0.15971772
206	0xbd0d13aa	-0.03444258
207	0x3dbb6913	0.09150901
208	0xbdd3a6c6	-0.10334544
209	0xbe9a5d5f	-0.30149361
210	0xbd6eb764	-0.058280364
211	0xbcbcf44c	-0.023065709
212	0x3cddc3af	0.027070848
213	0xbe49f77b	-0.19723313
214	0xbcc3cc2f	-0.023901073
215	0xbdcb7f96	-0.099364445
216	0xbd4ae261	-0.049532298
217	0xbee77a12	-0.4521032
218	0x3ed1be19	0.40965346
219	0xbe3e5445	-0.18586834
220	0xbe4fc6e5	-0.20290716
221	0x3d9a66aa	0.07539113
222	0x3ed3370a	0.4125293
223	0xbed313b6	-0.41225976
224	0xbeb0b145	-0.34510246
225	0xbf071d70	-0.52779293
226	0xbfe1fe34	-1.7655702
227	0xbe2eeabc	-0.17081732
228	0xbd335ed2	-0.0437916
229	0x3cc14a44	0.023594983
230	0x3e164dcd	0.14678116
231	0x3e983a93	0.2973219
232	0x3d6efa0b	0.05834393
233	0x3dc69550	0.09696448
234	0x3dab2625	0.08356885
235	0xbc154432	-0.009110497
236	0x3d8ea66f	0.069653384
237	0xbe28c1c8	-0.16480172
238	0x3d30fc5d	0.043209422
239	0xbce11b7d	-0.027478928
240	0x3e435e6a	0.19078985
241	0x3ef747d4	0.48296988
242	0x3d5057de	0.050865047
243	0x3d8b18d3	0.06791844
244	0xbdd89fdf	-0.10577368
245	0xbc8f6daa	-0.017508347
246	0x3e00f46c	0.1259324
247	0xbd83c68c	-0.06434354
248	0xbc9c42a9	-0.019074755
249	0x3cc9d747	0.024638785
250	0x3e01cb28	0.12675154
251	0x3e90b635	0.28264013
252	0x3dafd812	0.08586134
253	0x3bbe3e3f	0.00580576
254	0xbe1f21a3	-0.15540175
255	0x3d6db1c5	0.058030862

fc1.bias f4 [256]
0	0x3d4c38d2	0.049858876
1	0x3dd46c58	0.103722274
2	0xbddefb3f	-0.10887765
3	0xbdc81ddc	-0.0977132
4	0x3e1e96d9	0.15487231
5	0xbd33ec7a	-0.043926693
6	0xbdf4810d	-0.11938677
7	0xbd2c95a1	-0.042134885
8	0xbe23bd2b	-0.1599013
9	0xbe7015a1	-0.23445751
10	0xbc83e814	-0.016101874
11	0x3e1132ef	0.14179586
12	0xbe82581d	-0.2545785
13	0xbdf902b7	-0.12158721
14	0xbe7de57c	-0.24794573
15	0x3da25b04	0.07927516
16	0x3c8b8ca8	0.017034844
17	0xbdeb3eb7	-0.11486571
18	0xbe2729b7	-0.16324507
19	0xbe1ec6ce	-0.15505525
20	0xbdfd8da0	-0.123805285
21	0xbc95bf49	-0.018279688
22	0xbc18e7c6	-0.009332603
23	0xbe012ec6	-0.12615499
24	0xbc6ed566	-0.014577245
25	0xbc72eff9	-0.014827722
26	0x3d042ad8	0.03226742
27	0x3dc219bb	0.09477564
28	0xbc8bd097	-0.017067237
29	0x3e0c719d	0.13715215
30	0x3af18feb	0.0018429732
31	0xbdb350e6	-0.087556645
32	0x3c326122	0.010887416
33	0x3e0712ab	0.13190715
34	0xbbee2f93	-0.007268855
35	0x3e118ec0	0.14214611
36	0x3d2ea7ab	0.04264037
37	0x3d7d5a74	0.06185384
38	0xbe1be746	-0.15224943
39	0x3e123fcb	0.14282148
40	0xbe13b119	-0.14423026
41	0xbd69bacd	-0.057062913
42	0x3dea2e1a	0.114345744
43	0x3d25b10f	0.04045206
44	0xbd7910a8	-0.0608069
45	0xbdf62edb	-0.12020656
46	0xbe4ea4c4	-0.2018004
47	0xbe138901	-0.14407732
48	0x3c58175b	0.013189162
49	0xbd83cc80	-0.0643549
50	0xbd1b55d5	-0.037923653
51	0x3e240e97	0.1602119
52	0xbbb456f6	-0.0055035306
53	0xbe35fd71	-0.17772461
54	0xbd54f334	-0.05198975
55	0xbdcbddd5	-0.099544205
56	0x3e1d2d31	0.1534927
57	0xbdb8b9db	-0.09019824
58	0x3e0eb0b6	0.13934597
59	0x3dcb0d4c	0.099146456
60	0x3e2de104	0.16980368
61	0x3da2d560	0.07950854
62	0x3d84eb47	0.06490188
63	0xbd2ed773	-0.042685937
64	0x3e13caa3	0.14432769
65	0xbdc30668	-0.09522706
66	0xbe54b269	-0.20771183
67	0xbe32e9c2	-0.17471984
68	0xbe2ad2c1	-0.16681959
69	0xbd8bc0a8	-0.06823856
70	0xbe472c21	-0.19450428
71	0x3d6b4960	0.057443023
72	0xbe3e59df	-0.1858897
73	0x3e03086f	0.12796186
74	0xbd3248c0	-0.04352641
75	0xbde3e458	-0.111275375
76	0x3e12ab03	0.14323048
77	0xbdbc7db1	-0.09203661
78	0xbe08a0e6	-0.13342628
79	0x3d7a7db1	0.061155025
80	0xbe6f6902	-0.23379901
81	0x3d449841	0.047996763
82	0x3cc4046e	0.023927893
83	0xbe2f8e61	-0.17144157
84	0x3d00bdee	0.03143113
85	0xbe2ae42d	-0.16688605
86	0x3d2ad419	0.04170618
87	0x3d89ea67	0.06734162
88	0x3d21cb36	0.039500438
89	0xbd333409	-0.043750796
90	0x3e10b511	0.14131571
91	0xbe68f91f	-0.22751282
92	0xbd4aa505	-0.04947378
93	0x3deb99d6	0.11503951
94	0xbd2ba0fa	-0.041901566
95	0x3cc1a615	0.023638764
96	0xbcac80d5	-0.021057526
97	0xbdac0614	-0.08399597
98	0xbd9ccb28	-0.076559365
99	0x3e221b5b	0.15830748
100	0xbce69010	-0.028144866
101	0xbe75a3f6	-0.23988327
102	0xbda0de99	-0.07854957
103	0xbceed537	-0.029154403
104	0xbe2da285	-0.16956528
105	0xbe2e20c9	-0.17004694
106	0xbcbc6d2c	-0.023001276
107	0xbe363569	-0.17793812
108	0xbe56355a	-0.2091879
109	0x3d932caa	0.07186253
110	0x3c87aebd	0.016562814
111	0xbca963c0	-0.020677447
112	0x3deaeb8c	0.11470708
113	0x3c9bc813	0.019016301
114	0x3c9d1cec	0.01917883
115	0xbe06e970	-0.13174987
116	0xbdf27dda	-0.118404105
117	0xbc92064c	-0.017825268
118	0xbd9a1da2	-0.07525183
119	0xbd9ac70e	-0.07557498
120	0xbdbbfea7	-0.091794305
121	0xbcf00f17	-0.02930407
122	0xbe0527aa	-0.13003412
123	0xbd9cf78b	-0.076644026
124	0xbe39a88a	-0.18130699
125	0xbd86c420	-0.065803766
126	0x3d9f0a6f	0.07765662
127	0x3d830fe8	0.06399518
128	0x3e08b0c3	0.13348679
129	0xbda79a32	-0.08183707
130	0xbe019193	-0.12653188
131	0x3da64524	0.08118656
132	0x3d1113d7	0.03541931
133	0xbc385278	-0.011250131
134	0xbcc6bd85	-0.024260292
135	0xbd4ff3bd	-0.050769556
136	0xbdc7f3e2	-0.09763314
137	0xbe329a5a	-0.17441693
138	0xbe252fb1	-0.16131474
139	0xbe480a18	-0.195351
140	0xbda4214a	-0.08014162
141	0x3c307196	0.0107692685
142	0x3c2db0ab	0.010601203
143	0xbdb0e903	-0.086381935
144	0xbd8d2b45	-0.06893019
145	0xbdd7c6a8	-0.105359375
146	0xbdd18386	-0.10230164
147	0x3e2de73e	0.16982743
148	0xbe36fee4	-0.1787067
149	0x3db8bb40	0.0902009
150	0xbd958b6f	-0.073019855
151	0xbe16a7a2	-0.14712384
152	0xbe05c9fb	-0.1306533
153	0xbdf24e57	-0.118313484
154	0xbdb00afc	-0.08595845
155	0x3ce08156	0.027405422
156	0xbca2ab1b	-0.01985698
157	0xbe1dd377	-0.15412699
158	0x3d88e91f	0.06685089
159	0x3dc82919	0.09773464
160	0x3aef0c94	0.0018238002
161	0x3dfff5ea	0.12498076
162	0xbd1a6852	-0.037697144
163	0xbd1e2b9f	-0.03861582
164	0x3d4f17ce	0.05055981
165	0xbe30834d	-0.17237587
166	0xbcb595ab	-0.022166094
167	0xbdbf7bb2	-0.09349765
168	0xbd9971ae	-0.07492386
169	0xbe15e9db	-0.1463999
170	0x3e396954	0.18106586
171	0xbdd8da25	-0.10588483
172	0xbbca1769	-0.0061673415
173	0x3e28250f	0.16420387
174	0x3a9d4a12	0.0012000224
175	0xbe0436dd	-0.12911554
176	0x3e2459d7	0.16049896
177	0xbe2867ac	-0.16445798
178	0x3d0a67d8	0.03379044
179	0xbe8fa106	-0.2805254
180	0x3e03896f	0.12845396
181	0xbd01fe02	-0.03173638
182	0xbe1a2ae7	-0.15055428
183	0xbdb52211	-0.08844388
184	0xbe25ccaf	-0.16191362
185	0xbcdbf494	-0.026850022
186	0x3dffb86b	0.12486347
187	0x3d4c6703	0.049902927
188	0x3da1aa22	0.078937784
189	0x3d676053	0.056488346
190	0xbe15ba28	-0.14621794
191	0x3dd260d5	0.102723755
192	0x3d6d0e31	0.057874862
193	0x3ca04df6	0.019568425
194	0xbd8b352a	-0.067972496
195	0x3d4cbcd5	0.04998477
196	0x3d952cc1	0.07283927
197	0xbde2bedc	-0.1107156
198	0xbe643e03	-0.2228928
199	0xbd7a6ddf	-0.061139937
200	0x3d08d07a	0.033401944
201	0xbce93155	-0.028465906
202	0xbddeebfe	-0.10884856
203	0x3d2591cb	0.040422242
204	0xbdb4e375	-0.088324465
205	0xbe12187a	-0.1426715
206	0x3db3f0f8	0.087861955
207	0x3e37c3a0	0.17945719
208	0x3d8d4ec4	0.06899789
209	0xbd80c6ff	-0.062879555
210	0xbe470038	-0.19433677
211	0xbe428e70	-0.18999648
212	0xbd25d68f	-0.040487822
213	0xbe2140c3	-0.15747361
214	0x3d8c111d	0.068392016
215	0xbe18adf7	-0.14910112
216	0xbe2b430d	-0.16724797
217	0x3cf65ba9	0.030073004
218	0xbd8ee9d5	-0.06978194
219	0xbce1de33	-0.027571773
220	0x3d1f64d5	0.03891452
221	0xbe07ef0f	-0.13274787
222	0xbcf9e900	-0.03050661
223	0xbd396dac	-0.045270607
224	0xbe650e27	-0.2236868
225	0xbdc578dd	-0.096421935
226	0xbd2b10a0	-0.0417639
227	0xbdbb539a	-0.09146805
228	0x3d30eba9	0.043193493
229	0xbe3c3af3	-0.18381862
230	0xbd805a88	-0.062672675
231	0xbb4882de	-0.003059558
232	0x3d038761	0.03211153
233	0xbdab86f5	-0.083753504
234	0xbc607a6f	-0.013701065
235	0xbe0f4a08	-0.13993084
236	0xbde00b83	-0.10939696
237	0xbe0b6377	-0.13612162
238	0xbdc7f762	-0.097639814
239	0xbe220aca	-0.15824428
240	0x3b815365	0.003946709
241	0x3e094c8f	0.13408111
242	0xbe0938d6	-0.13400587
243	0xbdb7c691	-0.089734204
244	0xbe09efad	-0.13470335
245	0xbcadb794	-0.021205701
246	0xbd54c32b	-0.05194394
247	0x3e09872e	0.13430473
248	0x3df21c44	0.118217975
249	0x3c5c843c	0.0134592615
250	0xbd8ccd89	-0.0687514
251	0xbe67c7b1	-0.2263477
252	0xbd9ce760	-0.07661319
253	0x3d7f3198	0.062303156
254	0xbd8d8b11	-0.069112904
255	0xbd80698e	-0.06270133

fc2.weight f4 [128, 256]
0	0xbd4df2ae	-0.050280266
1	0x3c8d5c7b	0.017256012
2	0x3d19ce0f	0.03755003
3	0xbc245a33	-0.010031271
4	0xba0ed54e	-0.0005448655
5	0x3d1284a5	0.03577103
6	0x3ccc96af	0.024974195
7	0x3ce14206	0.027497303
8	0x3ccab177	0.024742825
9	0x3b01740a	0.0019753003
10	0x3b678c7b	0.0035331536
11	0xbd9f8914	-0.077898175
12	0xbc6210d7	-0.01379796
13	0xbd439603	-0.047750484
14	0x3b18a89a	0.0023293854
15	0xbd28c81b	-0.04120646
16	0xbd203aeb	-0.03911869
17	0x3d23fdb0	0.040036857
18	0xbc4db326	-0.012554919
19	0xbd91d81d	-0.071212985
20	0xbd38ff7b	-0.04516552
21	0x3c2a56aa	0.010396639
22	0xbce40af4	-0.027837254
23	0xbdb5868c	-0.088635534
24	0x3bb49114	0.0055104587
25	0x3bce34b6	0.0062929047
26	0x3c9a945f	0.018869577
27	0xbd847548	-0.06467682
28	0xbcec6718	-0.028857753
29	0xbd3cad8f	-0.046063956
30	0xbdd355b5	-0.10319082
31	0x3abdfce9	0.0014494929
32	0x3d16bb46	0.03679969
33	0xbcbf9a76	-0.023389082
34	0x3cf0f188	0.029412046
35	0x3c2ef54f	0.010678603
36	0xbd792df9	-0.06083486
37	0xbcd488da	-0.025944162
38	0x3cb62fb6	0.022239547
39	0x3cdeecba	0.02721249
40	0xbcf87303	-0.03032828
41	0xbcadc203	-0.021210676
42	0xbd875d1e	-0.066095576
43	0xbd586843	-0.052833807
44	0xbc95e771	-0.018298836
45	0x3b799b55	0.003808697
46	0xbb90a884	-0.00441462
47	0x3cb10b83	0.021611935
48	0xbd923b0f	-0.07140171
49	0x3c386513	0.011254567
50	0xbd7010a0	-0.058609605
51	0xbd2599b0	-0.04042977
52	0x3d25b590	0.040456355
53	0xbd056af2	-0.032572694
54	0xbd9b43e8	-0.075813115
55	0xbd8b65e8	-0.068065464
56	0xbd0f8aa3	-0.035044324
57	0xbd19a2ad	-0.037508655
58	0xbd8894c4	-0.06669
59	0x3d7767f1	0.06040186
60	0xbc3807df	-0.011232345
61	0xbcf6ab0d	-0.03011086
62	0x3cd82e4e	0.026389267
63	0xbdb466c0	-0.088086605
64	0xbb97ffb0	-0.0046386346
65	0x3d12951a	0.035786726
66	0x3c59481e	0.013261823
67	0x3d040584	0.032231823
68	0xbd18e0bd	-0.037323702
69	0xbd95a39d	-0.073065974
70	0x3d5c5bfc	0.05379866
71	0xbdb5bd3f	-0.088739865
72	0xbd1ac4db	-0.037785392
73	0x3d368fdc	0.04457079
74	0xbd3fa465	-0.04678764
75	0xbd112b0e	-0.03544145
76	0xbd2ed07b	-0.04267929
77	0xbafd6803	-0.0019333366
78	0xbcfa3694	-0.030543603
79	0x3b9efead	0.004852137
80	0x3d624b89	0.055247817
81	0xbda963f0	-0.08271015
82	0x3d057af5	0.032587964
83	0xbcb3962e	-0.021922197
84	0xbda3cda8	-0.0799821
85	0x3c5b62ba	0.013390237
86	0xbd65ebf8	-0.05613324
87	0x3cfd9586	0.030955087
88	0xbd11461c	-0.035467252
89	0xbd85d6d5	-0.065351166
90	0xbda39ca2	-0.0798886
91	0x3c4573c0	0.012051523
92	0xbd9564d0	-0.07294619
93	0x3c4cdfd3	0.012504536
94	0x3d055852	0.032554932
95	0xbd8c3b9e	-0.068473086
96	0x3c9d91fa	0.019234646
97	0xbd49c90a	-0.04926399
98	0xbc173901	-0.009229899
99	0xbd881765	-0.06645087
100	0x3cde9313	0.02716974
101	0xbd9058aa	-0.07048161
102	0xbd827d29	-0.06371529
103	0xbd0d33cb	-0.03447322
104	0x3b6354c4	0.0034687975
105	0x3ae8f48c	0.0017773076
106	0xbda35228	-0.079746544
107	0xb88dc6c1	-6.760425e-05
108	0xba0d5f0d	-0.0005392887
109	0xbd0e47b1	-0.03473634
110	0xbb375c94	-0.0027978765
111	0x3d7c22ac	0.061556503
112	0x3cb229c3	0.02174843
113	0xbd2dca20	-0.04242909
114	0xbd827a6c	-0.06371006
115	0xbd9ade08	-0.0756188
116	0x3c8174da	0.01580279
117	0xbc50b0b1	-0.012737439
118	0xbc1a3ea3	-0.009414348
119	0x3c9d6bb8	0.019216403
120	0xbd1c6582	-0.038182743
121	0xbd92506c	-0.071442455
122	0xbd6ac882	-0.057320125
123	0xbd9f15f7	-0.07767861
124	0x3d1492f0	0.036272943
125	0x3ca82dae	0.020529594
126	0xbd43aeb0	-0.047774017
127	0xbca76d4d	-0.02043786
128	0xbc9373b7	-0.017999513
129	0xbcf56464	-0.029955097
130	0xbd6c28c1	-0.057656053
131	0xbb8325c0	-0.004002303
132	0xbd195f98	-0.03744468
133	0xbd897ddf	-0.06713461
134	0xbcd31409	-0.02576639
135	0xbd3d162a	-0.046163715
136	0xbc2cb4ab	-0.0105411215
137	0xbc429513	-0.011876362
138	0x3c095109	0.008381137
139	0x3ceca9e2	0.0288896
140	0xbd857f48	-0.065184176
141	0xbd120f0a	-0.035658874
142	0x3d3e9c98	0.04653606
143	0x3c5d3a98	0.013502739
144	0xbd02b1ea	-0.031907953
145	0x3cfa2437	0.030534847
146	0x3c864faa	0.016395409
147	0x3c106790	0.008813754
148	0xbd5d587a	-0.054039456
149	0x3d4c3a6b	0.0498604
150	0xbd9367e5	-0.07197551
151	0xbda53d51	-0.08068336
152	0x3c1e610f	0.009666695
153	0xbd24f63a	-0.040273882
154	0xbdaa96b4	-0.083295256
155	0x3d00c919	0.03144178
156	0xbca2d1f2	-0.0198755
157	0xbd6444b9	-0.0557296
158	0x3c5c658e	0.013451947
159	0x3d220c04	0.03956224
160	0xbc8bc7b6	-0.017063003
161	0x3d1196f0	0.035544336
162	0x3ca9f020	0.020744383
163	0xbc79ae29	-0.015239277
164	0xbd55ee1c	-0.052229032
165	0xbd7f63ce	-0.06235104
166	0x3c8b9311	0.0170379
167	0xbce42ca0	-0.02785331
168	0xbd6e6dd0	-0.058210194
169	0xbd8a4c16	-0.067527935
170	0xbd5fa73a	-0.05460284
171	0xbc7528d6	-0.014963349
172	0xbd3c0309	-0.045901332
173	0xbd998394	-0.074958
174	0xbcea0a07	-0.028569235
175	0xbd194cf4	-0.037426904
176	0xbd00139f	-0.031268712
177	0x3d0b9263	0.034075152
178	0x3cde9410	0.027170211
179	0x3d13d581	0.036092285
180	0x3d428013	0.047485422
181	0xbc973468	-0.018457606
182	0xbd605fb1	-0.05477876
183	0xbcc96451	-0.024583967
184	0xbba9a6ff	-0.005177378
185	0xbd3c9474	-0.046040013
186	0x3c5eae9d	0.013591436
187	0x3d0951c7	0.033525255
188	0xbd89e6fd	-0.06733511
189	0x3a9c9856	0.0011947255
190	0xbc4e2dd2	-0.012584167
191	0x3cda30d5	0.026634613
192	0xbd1ceae0	-0.03830993
193	0x3d4b7745	0.04967429
194	0xbcb9907c	-0.022651903
195	0x3ce73103	0.028221613
196	0xbd8c0e06	-0.06838612
197	0x3c07f6f7	0.008298627
198	0xbd650172	-0.05590958
199	0xbd97a32d	-0.0740417
200	0xbdcb2d9c	-0.09920809
201	0xba29467e	-0.00064573425
202	0xbd2e7d2f	-0.042599853
203	0xbc2453c5	-0.010029738
204	0xbd4c5a77	-0.04989096
205	0xbce9e173	-0.028549885
206	0xbd0ecbb2	-0.034862228
207	0x3acfde0f	0.0015859025
208	0x3d672bfe	0.05643844
209	0xbd7ad1ac	-0.061235115
210	0x3c08371c	0.00831392
211	0xbd0f06ab	-0.03491847
212	0x3c8d7a82	0.01727033
213	0xbcd5dd6c	-0.026106559
214	0x3c02b8f0	0.007978663
215	0xbd4ad23b	-0.049516898
216	0x3cd9ca13	0.026585614
217	0x3d4830e8	0.048874766
218	0xbd299f36	-0.0414116
219	0xbd762672	-0.060095258
220	0xbcafd6fb	-0.021464815
221	0xbda279a6	-0.07933359
222	0x3c08d002	0.008350374
223	0xbceb2685	-0.028704891
224	0xbdade89f	-0.084916346
225	0x3c55174c	0.013006043
226	0xbd830c6e	-0.06398855
227	0xbd583122	-0.05278123
228	0x3c30cc4b	0.010790895
229	0x3c5b81a6	0.01339761
230	0x3d26edd3	0.04075415
231	0x3d3d3952	0.046197243
232	0x3c729c02	0.014807703
233	0xbd089843	-0.033348333
234	0xbcc6851e	-0.024233397
235	0x3d0d4d93	0.03449781
236	0xbd76d507	-0.060261752
237	0x3d1a900e	0.037735038
238	0x3c4a42ef	0.01234506
239	0x3c567ac1	0.01309079
240	0x3b740157	0.0037232244
241	0xbd57b93c	-0.052666888
242	0x3c139404	0.009007458
243	0xbc5005b9	-0.012696677
244	0xbc046487	-0.008080608
245	0xbd25ccab	-0.04047839
246	0x3ccd0f89	0.025031822
247	0xbc891a03	-0.016736036
248	0xbc36ad5c	-0.0111497305
249	0xbda68a1e	-0.081318125
250	0x3d669bf3	0.05630107
251	0xbd2c6c62	-0.04209555
252	0x3cc5f8af	0.024166433
253	0x3d23af7b	0.039962273
254	0x3c19a1a5	0.009376918
255	0xbdb9c9ce	-0.09071694

fc2.bias f4 [128]
0	0xbd9da1dd	-0.076968886
1	0x3d2d2d88	0.04227975
2	0xbd8af027	-0.06784087
3	0xbc436d18	-0.011927865
4	0xbcba151b	-0.022715142
5	0xbda9deea	-0.082944706
6	0xbc11b157	-0.008892379
7	0xbdb45588	-0.08805376
8	0x3e02f0cf	0.12787174
9	0xbd5445b3	-0.051824283
10	0x3d6da531	0.058018867
11	0x3ab7bac7	0.0014017456
12	0xbd9452b5	-0.072423376
13	0x3cd55748	0.026042596
14	0xbd80c25c	-0.06287071
15	0xbd89eb30	-0.067343116
16	0xbd258e64	-0.040418997
17	0xbd7d7b96	-0.06188544
18	0xbdaf75d0	-0.08567393
19	0xbde0157a	-0.10941596
20	0xbd89e390	-0.06732857
21	0xbc9c2f18	-0.019065425
22	0xbd8674f1	-0.065652736
23	0xbd82f31b	-0.06394025
24	0xbd723885	-0.059135932
25	0xbd48832f	-0.04895323
26	0xbc4bdd9b	-0.012442972
27	0xbd268600	-0.040655136
28	0xbc8fc261	-0.017548742
29	0xbc400bb2	-0.011721538
30	0xbcf76891	-0.030201228
31	0xbd737943	-0.059441816
32	0x3b6c90db	0.0036097083
33	0xbde15628	-0.11002761
34	0x3da73edc	0.08166286
35	0xbcba3d1c	-0.022734217
36	0x3c504256	0.012711128
37	0xbd8e948c	-0.06961927
38	0x3d14bc33	0.036312293
39	0x3d83739f	0.06418537
40	0xbd64b815	-0.055839617
41	0x3ba02f55	0.004888455
42	0xbc0a519c	-0.008442309
43	0xbd926df0	-0.07149875
44	0xbd83512d	-0.064119674
45	0xbd71b6e0	-0.059012294
46	0xba255270	-0.00063065346
47	0xbdbf44a8	-0.09339267
48	0xbc6a519e	-0.014301686
49	0x3ba6a1f5	0.0050852248
50	0xbe055bd2	-0.13023308
51	0xbdad27f6	-0.084548876
52	0x3c241b0a	0.010016212
53	0x3d98ca90	0.07460511
54	0x3d975df6	0.073909685
55	0x3bbd907a	0.005785045
56	0x3d52f2bc	0.05150102
57	0xbd967d6d	-0.07348142
58	0xbcda5de1	-0.026656093
59	0xbc61840f	-0.013764395
60	0xbcbe8928	-0.02325876
61	0x3d8ca03e	0.06866501
62	0x3d869649	0.06571633
63	0xbce2d7ed	-0.027690852
64	0x3c016d2a	0.007899562
65	0x3b369140	0.0027857572
66	0x3c7a6f77	0.015285364
67	0xbda2dace	-0.0795189
68	0xbd70fa42	-0.058832414
69	0xbe06cbab	-0.1316363
70	0x3d015d83	0.03158332
71	0xbdac336e	-0.08408247
72	0x3d7d96d1	0.061911408
73	0x3d03ec66	0.03220787
74	0xbdbbadfe	-0.09164046
75	0xbd2b89c2	-0.041879423
76	0xbcfc8595	-0.030825416
77	0xbd5533db	-0.052051406
78	0xbd69aa5c	-0.057047233
79	0xbbdf34a8	-0.006811697
80	0xbdba7e4b	-0.0910612
81	0xbc249af7	-0.010046712
82	0xbd5beb95	-0.053691465
83	0xbdb1f5f5	-0.08689491
84	0xbd1c8bc9	-0.038219247
85	0x3d571951	0.052514378
86	0x3d871965	0.065966405
87	0xbdaeb945	-0.08531431
88	0x3abe4f95	0.0014519567
89	0xbcd44e8e	-0.025916364
90	0x3e4e9a1f	0.2017598
91	0x3cf70ce5	0.030157516
92	0xbc855c31	-0.016279312
93	0x3c2e1c00	0.010626793
94	0xbe042ffc	-0.1290893
95	0x3b574bff	0.0032851694
96	0x3e060c26	0.13090572
97	0xbcc4bda1	-0.024016203
98	0x3d829243	0.063755535
99	0xbab9e79f	-0.0014183408
100	0xbd20645c	-0.03915821
101	0x3ce7e5b3	0.028307771
102	0xbd278099	-0.040894125
103	0xbcd44fa7	-0.025916887
104	0x3d7fcdac	0.062452003
105	0xbe037cd0	-0.12840581
106	0xbd870ad9	-0.06593866
107	0x3cc8cf6a	0.024512965
108	0x3c7a2121	0.015266688
109	0x3d20d571	0.039266054
110	0x3d47efee	0.0488128
111	0x3de61d45	0.112360515
112	0xbcf71134	-0.03015957
113	0x3dc4d764	0.09611395
114	0xbab5120b	-0.0013814581
115	0xbcce468e	-0.025180127
116	0xbdc59412	-0.09647383
117	0xbda1f75b	-0.079085074
118	0x3e1422e6	0.14466438
119	0xbd5083f5	-0.050907094
120	0x3deeceb2	0.11660518
121	0x3c85dcee	0.016340699
122	0x3ce2bb36	0.02767716
123	0xbd585150	-0.05281192
124	0x3c3df3c1	0.01159376
125	0x3d8022eb	0.0625666
126	0xbd89c93d	-0.06727836
127	0x3cab1c3e	0.02088749

fc3.weight f4 [64, 128]
0	0x3d86682f	0.0656284
1	0xbe3cc5d8	-0.18434846
2	0xbcd7c892	-0.026340757
3	0xbb7cafa2	-0.0038556834
4	0xbe03b5d5	-0.12862332
5	0xbe2dfa52	-0.16990021
6	0x3e400b7b	0.1875438
7	0xbd86a03d	-0.06573532
8	0xbdec3eca	-0.115354136
9	0xbd158e35	-0.036512572
10	0xbd42cdf7	-0.047559705
11	0xbd27b454	-0.04094346
12	0x3d1be325	0.03805842
13	0x3e070879	0.13186826
14	0x3db99725	0.09062032
15	0x3d5ebad3	0.05437739
16	0x3e04ea92	0.12980106
17	0xbd033913	-0.032036852
18	0x3d8ec4d5	0.069711365
19	0xbdda7f1b	-0.10668775
20	0x3d31b848	0.043388635
21	0x3e447c5b	0.19188063
22	0x3e9a1176	0.30091447
23	0xbd237658	-0.039907783
24	0xbd57dd05	-0.052701015
25	0x3d0302cc	0.03198509
26	0x3e6a3738	0.22872627
27	0x3c034e3a	0.008014256
28	0xbdb52171	-0.08844269
29	0xbd432b64	-0.047648802
30	0xbd7fa921	-0.062417153
31	0xbe0c20d1	-0.13684393
32	0xbd3a97aa	-0.045554794
33	0xbec0f9be	-0.37690538
34	0x3e6754c6	0.22590932
35	0x3e4a517a	0.19757643
36	0x3cc7923f	0.024361728
37	0xbc9a4784	-0.01883293
38	0xbd091853	-0.033470463
39	0x3db4afcf	0.08822595
40	0xbc502621	-0.012704403
41	0xbe087bfe	-0.1332855
42	0xbd0cfbf7	-0.03441998
43	0xbdd5293a	-0.10408254
44	0x3d96c2ee	0.07361399
45	0x3d9e4f26	0.0772994
46	0x3d58d349	0.052935872
47	0xbd766e8f	-0.06016403
48	0x3e778784	0.24172789
49	0xbea9c768	-0.33159947
50	0xbab1e775	-0.0013573008
51	0xbdee680c	-0.11640939
52	0x3e079102	0.1323891
53	0x3e912d8f	0.2835507
54	0xbe1cf1a5	-0.15326555
55	0xbe1e0888	-0.15432942
56	0x3e30ea59	0.17276897
57	0x3e23ef51	0.1600926
58	0x3d8229ad	0.06355605
59	0x3d0e7377	0.034778085
60	0xbd802516	-0.062570736
61	0x3d5bcc47	0.05366161
62	0x3ca682c1	0.02032602
63	0x3ccd8e79	0.02509235
64	0x3e19d059	0.15020885
65	0x3db59ddd	0.08868001
66	0x3e0f5e88	0.14000905
67	0xbdfff83f	-0.12498521
68	0x3e794d9c	0.24346012
69	0xbe17e3f4	-0.14833051
70	0x3e2db326	0.16962871
71	0xbd8a3d8d	-0.06750021
72	0xbda8fd1f	-0.08251404
73	0xbdab4353	-0.083624505
74	0xbd7f0c27	-0.06226745
75	0xbe159960	-0.14609289
76	0x3da43964	0.08018759
77	0xbd25f9e0	-0.040521502
78	0xbe805655	-0.25065866
79	0x3cf12c75	0.029440144
80	0xbb56d534	-0.0032780888
81	0xbe8c63b6	-0.27419823
82	0x3e4d8cca	0.20073238
83	0xbe38edd2	-0.18059471
84	0xbe19a3ac	-0.15003842
85	0xbc3a5050	-0.011371687
86	0x3ddd715a	0.10812636
87	0xbdc46e45	-0.09591345
88	0x3e24b727	0.16085492
89	0xbd147d8c	-0.036252543
90	0xbdb073d5	-0.08615843
91	0x3d31e9f4	0.043436006
92	0x3de7f850	0.11326659
93	0xbe7c7d94	-0.24657279
94	0x3e511132	0.20416716
95	0x3c9e88d9	0.019352363
96	0xbeddf99d	-0.43354502
97	0x3def021b	0.116703235
98	0x3dc05621	0.09391428
99	0xbe8d16c7	-0.2755644
100	0x3e2bff04	0.167965
101	0x3d037c18	0.032100767
102	0x3cda8165	0.026673028
103	0xbd8ef669	-0.06980593
104	0x3e0d4cd1	0.13798834
105	0x3ce108be	0.027469989
106	0x3e98a10d	0.29810372
107	0xbf0103f3	-0.5039665
108	0x3dff9e48	0.12481362
109	0xbe2f5686	-0.1712285
110	0x3db6c5df	0.0892446
111	0xbdbecddf	-0.093166105
112	0xbdc59772	-0.096480265
113	0xbe93faa2	-0.28902155
114	0x3d9bd6a0	0.07609296
115	0xbe3dc72b	-0.18533008
116	0x3da9a871	0.08284081
117	0x3db7971e	0.0896437
118	0xbe4caf99	-0.1998886
119	0xbdcf281d	-0.10115073
120	0xbd99d2a7	-0.07510882
121	0xbdeda5de	-0.11603902
122	0x3dd20f03	0.102567695
123	0xbda4c2ce	-0.080449685
124	0xbdef545a	-0.11686011
125	0x3e35ebbf	0.17765711
126	0xbd52a598	-0.051427454
127	0xbd6822b5	-0.056673724
128	0x3c9581f3	0.018250441
129	0xbe248e37	-0.16069876
130	0xbd53742e	-0.05162447
131	0xbd86a8b2	-0.06575145
132	0xbe8af0e9	-0.27136925
133	0xbd204e62	-0.03913725
134	0x3d85903a	0.0652165
135	0xbda78aa4	-0.081807405
136	0x3d541c52	0.05178482
137	0xbc7d42a7	-0.015457786
138	0xbdfef87c	-0.124497384
139	0x3e07efd8	0.13275087
140	0xbc1836c3	-0.0092904
141	0x3e7159a8	0.23569357
142	0x3cbd23be	0.023088332
143	0x3bdf08de	0.006806477
144	0x3dde9d71	0.10869873
145	0xbd273ea7	-0.040831234
146	0xbe85d5f8	-0.26139808
147	0xbe9bd194	-0.30433333
148	0x3d2e1259	0.042497966
149	0x3df1ca0c	0.118061155
150	0x3e45cc8a	0.19316307
151	0xbd9f3539	-0.07773823
152	0xbcc37370	-0.023858756
153	0xbd92cf72	-0.07168473
154	0x3e4dff0e	0.20116827
155	0x3ce22e8e	0.02761009
156	0x3ca37f13	0.019958055
157	0x3d91c8bd	0.07118366
158	0x3e652996	0.22379145
159	0x3b68e3c7	0.0035536157
160	0xbca5fd07	-0.020262254
161	0xbcf94925	-0.030430386
162	0xbe0ef09a	-0.1395897
163	0x3e0ebbc6	0.13938817
164	0x3e6103b6	0.21974072
165	0xbcc6447d	-0.02420258
166	0xbdd6f714	-0.10496345
167	0xbe0df94e	-0.13864633
168	0x3dbcc98f	0.09218132
169	0xb9e60636	-0.00043873646
170	0xbbeb8d02	-0.0071884403
171	0x3c8e6a33	0.017384624
172	0xbdc5253d	-0.09626243
173	0xbc46365e	-0.012097923
174	0xbd80780d	-0.06272898
175	0x3d81574b	0.06315478
176	0x3cc68770	0.024234504
177	0xbd09f23b	-0.033678275
178	0x3da02429	0.07819397
179	0xbe9d68ec	-0.30744112
180	0x3e46125a	0.19342938
181	0x3db924b7	0.09040206
182	0x3d550356	0.052005135
183	0xbd7e4597	-0.062078085
184	0xbc4ec43d	-0.012620029
185	0xbe0e8394	-0.1391738
186	0x3c21d2b6	0.009876898
187	0xbd69b4b0	-0.057057083
188	0xbdb8ecc9	-0.09029538
189	0xbe08d25d	-0.13361497
190	0xbe0e8deb	-0.13921325
191	0xbde22f02	-0.11044122
192	0xbe06fb20	-0.13181734
193	0xbd5484bf	-0.05188441
194	0xbdc9b0e3	-0.098481916
195	0xbdee45ab	-0.11634382
196	0x3cab8c56	0.02094094
197	0xbe4680cf	-0.19385074
198	0x3e390c24	0.18071038
199	0x3e666ebe	0.22503182
200	0x3e8f3a39	0.27974108
201	0xbdac99cc	-0.08427772
202	0xbcda0c10	-0.02661708
203	0xbdb3997c	-0.08769509
204	0x3da35431	0.079750426
205	0xbd866703	-0.06562617
206	0xbd2b917a	-0.041886784
207	0xbd46752d	-0.04845159
208	0xbe8f1f68	-0.2795365
209	0x3e0c70b2	0.13714865
210	0xbc889b63	-0.016675657
211	0x3e022333	0.1270874
212	0x3d41730a	0.04722885
213	0x3c885ecb	0.016646763
214	0xbe9d81e2	-0.30763155
215	0x3e834c66	0.25644225
216	0xbd80104a	-0.06253107
217	0x3cc869d9	0.024464535
218	0x3d978de1	0.07400108
219	0xbd1369c4	-0.035989538
220	0xbe123807	-0.14279185
221	0xbe087de4	-0.13329273
222	0x3d4be9c2	0.049783476
223	0xbd595e88	-0.053068668
224	0x3d66e0e7	0.056366827
225	0x3e687b15	0.22703202
226	0x3e978311	0.29592183
227	0x3df4c517	0.119516544
228	0xbe2d335e	-0.16914126
229	0x3ba3466f	0.0049827616
230	0x3e1eb60e	0.15499136
231	0xbe70cfb1	-0.23516728
232	0x3dab8121	0.08374239
233	0x3cf32e6f	0.029685227
234	0xbe6c3a07	-0.2306901
235	0x3dabf5f9	0.08396525
236	0x3e139693	0.14412908
237	0x3d8bb037	0.0682072
238	0x3e02f073	0.12787037
239	0x3e2c3085	0.16815384
240	0x3e32a208	0.17444623
241	0x3d6be66d	0.057592798
242	0x3e2a22bd	0.16614814
243	0x3d59c008	0.05316165
244	0x3d4f3d01	0.050595287
245	0xbd14593c	-0.036217913
246	0xbd1f712f	-0.0389263
247	0x3e0481c1	0.12940122
248	0xbc4683e5	-0.012116407
249	0xbe0622fd	-0.13099284
250	0x3dd92638	0.10602993
251	0x3d11813e	0.035523646
252	0xbe1bdb69	-0.15220417
253	0x3db1916e	0.08670317
254	0xbd1b1ce3	-0.037869345
255	0xbe49f8c0	-0.19723797

fc3.bias f4 [64]
0	0xbdb907ee	-0.090347156
1	0x3ebfc7b2	0.37457043
2	0x3e0f6b91	0.14005877
3	0xbdf03cfa	-0.1173038
4	0x3efff81c	0.4999398
5	0x3eea7c43	0.4579793
6	0xbe5d77a8	-0.21627676
7	0x3e31e44a	0.17372242
8	0xbe0c9a6d	-0.13730784
9	0x3e9a2ea5	0.30113712
10	0x3ebb22cc	0.36549985
11	0xbd353884	-0.04424335
12	0x3f01a842	0.50647366
13	0xbdd593c2	-0.10428573
14	0xbe02e9f8	-0.12784564
15	0x3e3dcebe	0.18535897
16	0xbdbdf96e	-0.092760906
17	0x3dd09a23	0.10185649
18	0xbd4523b9	-0.04812977
19	0x3e8651ec	0.26234376
20	0x3ea4ae14	0.3216406
21	0x3f0c0f35	0.54710704
22	0x3e24dde5	0.16100271
23	0x3da7bc30	0.08190191
24	0xbcf4a0f3	-0.029861903
25	0x3d69f3c8	0.057117254
26	0x3f1e512d	0.61842614
27	0x3e367cc6	0.17821035
28	0x3eeb1d32	0.45920712
29	0xbe4dfb0b	-0.20115297
30	0x3ec6f7a9	0.38860825
31	0x3ddd96a0	0.10819745
32	0x3e271b9c	0.16319126
33	0xbdec0e26	-0.11526136
34	0x3d81e7b7	0.06343024
35	0xbe080129	-0.13281693
36	0x3eb7030b	0.3574451
37	0x3eb7d940	0.35907936
38	0xbe502a3e	-0.20328614
39	0x3d8ca0d2	0.068666115
40	0x3ef52794	0.47881758
41	0x3c93318d	0.017967964
42	0x3e1ceac6	0.15323934
43	0x3ec290ab	0.38000998
44	0xbdbaddeb	-0.09124359
45	0x3eaa03ca	0.33206016
46	0x3c410e35	0.011783172
47	0x3e247490	0.1606009
48	0x3d7e53f5	0.062091786
49	0x3cfa7d02	0.030577186
50	0x3d9bf833	0.076156996
51	0xbc5ad5ec	-0.013356667
52	0xbda43fe7	-0.08020001
53	0xbe30169b	-0.17196123
54	0xbc808ac5	-0.01569117
55	0xbda7f17a	-0.08200355
56	0x3f16602f	0.58740515
57	0xbe99dbb5	-0.30050436
58	0xbe8569be	-0.26057237
59	0x3d72d15d	0.059281696
60	0xbe9b48d9	-0.30329016
61	0x3ecd4bab	0.40096793
62	0x3eb38226	0.35060233
63	0xbdd73685	-0.10508446

fc4.weight f4 [4, 64]
0	0xbc2d2df4	-0.010570038
1	0x3e592281	0.21204568
2	0x3e4cb202	0.1998978
3	0xbdbdadcf	-0.09261667
4	0x3e32bbe3	0.17454486
5	0x3e977a22	0.29585367
6	0xbf0c05a2	-0.54696095
7	0x3e1083ff	0.14112853
8	0xbedd4a13	-0.43220577
9	0x3dd28007	0.102783255
10	0x3e0b75f3	0.13619213
11	0x3f009d3a	0.5023991
12	0x3e288924	0.16458565
13	0xbe2885f6	-0.16457352
14	0xbbadef31	-0.005308055
15	0x3d2594d0	0.04042512
16	0xbdd60e01	-0.1045189
17	0xbeaffe4b	-0.34373698
18	0xbe72e873	-0.23721485
19	0x3e0c7c7c	0.13719362
20	0x3e4157af	0.18881105
21	0x3e67bad6	0.22629866
22	0x3d490938	0.049081057
23	0x3e05a436	0.13050923
24	0x3e2d321f	0.16913651
25	0xbf129b00	-0.5726776
26	0x3e90319c	0.2816285
27	0x3cff1b36	0.031140905
28	0x3e2f52d1	0.17121436
29	0xbdb7b21f	-0.08969521
30	0x3e722bfb	0.2364959
31	0xbc2b3336	-0.010449221
32	0x3ef41189	0.47669628
33	0x3e1bcb2b	0.15214221
34	0x3b7f2ec1	0.003893778
35	0xbd96b684	-0.07359031
36	0x3e651877	0.22372614
37	0x3e24f107	0.1610757
38	0xbe9423a2	-0.28933436
39	0x3c0bdbd3	0.008536297
40	0x3e7d555b	0.24739592
41	0x3d405363	0.046954524
42	0x3ec9e608	0.39433312
43	0x3e703ff5	0.23461898
44	0xbe629bbc	-0.2212972
45	0x3e74780b	0.23873918
46	0xbe041e65	-0.1290222
47	0x3cbd9efd	0.0231471
48	0x3ee973be	0.45596117
49	0x3e875063	0.26428518
50	0x3eb6104b	0.35559306
51	0xbf103b49	-0.5634046
52	0x3e018be7	0.12651025
53	0xbd76982d	-0.06020372
54	0x3c1173ab	0.008877675
55	0xbeef2e51	-0.46715024
56	0x3e250a30	0.16117167
57	0xbe8f3e7a	-0.27977353
58	0xbe9aecab	-0.30258688
59	0x3d82c0a3	0.06384399
60	0xbea384a7	-0.31937143
61	0x3e7e1963	0.24814372
62	0x3e349430	0.17634654
63	0xbe592a7e	-0.21207616
64	0xbd8ba403	-0.06818392
65	0x3e2b25b8	0.16713607
66	0x3c9d7f0c	0.01922562
67	0xbe88936b	-0.2667497
68	0x3dcc24c4	0.0996795
69	0x3e6d41b2	0.23169592
70	0xbe0a945c	-0.13533157
71	0x3e22ba39	0.15891351
72	0xbdbcf5f5	-0.092266
73	0x3d5e267e	0.054235928
74	0x3e02cf33	0.12774353
75	0x3ec9a77d	0.39385596
76	0x3dfe0abf	0.124043934
77	0x3e0750f6	0.13214478
78	0xbc8de09b	-0.017319014
79	0xbdde6656	-0.10859363
80	0x3e1eab60	0.15495062
81	0x3e0840d6	0.13305983
82	0xbdb2a31b	-0.08722516
83	0x3eba3731	0.36370233
84	0x3e5f8770	0.21829009
85	0x3e453b93	0.19261007
86	0x3e0c24cf	0.13685916
87	0x3e83edc0	0.25767326
88	0x3dd565e7	0.10419827
89	0x3d912a1b	0.07088109
90	0x3ec775bb	0.3895701
91	0xbb3f2328	-0.0029165242
92	0x3e599260	0.21247244
93	0xbea70bcc	-0.32626188
94	0x3ce96e7e	0.02849507
95	0x3e80d53b	0.25162682
96	0x3e858b60	0.26082897
97	0x3db8367b	0.08994766
98	0x3e808b98	0.25106502
99	0x3df93d7b	0.121699296
100	0x3d9d63cf	0.076850526
101	0x3d364cca	0.044506826
102	0xbf1cd365	-0.6126006
103	0x3ca0b305	0.019616613
104	0x3e509016	0.20367464
105	0x3eadd295	0.33949724
106	0x3e78576b	0.24252097
107	0x3dcb892a	0.09938271
108	0x3dc0390b	0.0938588
109	0x3e3b69a4	0.18302017
110	0x3d63d637	0.055624213
111	0x3ea4a32c	0.3215574
112	0x3e981c81	0.29709247
113	0x3edf25ee	0.43583626
114	0x3df74520	0.120737314
115	0x3ec7545a	0.38931543
116	0x3e0616b5	0.130946
117	0xbd947a40	-0.0724988
118	0xbe046beb	-0.12931792
119	0xbcc0cf93	-0.02353648
120	0x3ebccb73	0.3687397
121	0xbe9319a4	-0.287305
122	0xbf22cb47	-0.63591427
123	0xbe3a93c2	-0.18220428
124	0xbeb2245b	-0.34793362
125	0x3e61548b	0.22004907
126	0x3d3c8889	0.046028648
127	0xbdfc87a3	-0.12330558
128	0x3ec5eb4e	0.38656086
129	0x3ea447d7	0.3208606
130	0x3d80291e	0.062578425
131	0xbeba26c2	-0.36357695
132	0x3e385fde	0.1800532
133	0x3eabfd52	0.33591706
134	0xbecfce67	-0.4058716
135	0x3dc5a844	0.09651235
136	0xbefb4686	-0.49077243
137	0x3db7c3bf	0.089728825
138	0x3e375189	0.17902197
139	0x3ea9e1a4	0.33179963
140	0x3e4e5bbc	0.20152181
141	0x3e99300c	0.2991947
142	0x3bbb505d	0.005716367
143	0x3e1a525c	0.1507048
144	0x3e0c85d8	0.13722932
145	0xbe27fdaf	-0.16405366
146	0x3bda757a	0.0066668363
147	0x3e8192dd	0.2530736
148	0x3d20f4b6	0.039295875
149	0x3e6f3af1	0.23362328
150	0x3e27e859	0.16397227
151	0xbe41f5b6	-0.18941388
152	0xbe930a21	-0.28718665
153	0xbe22ae8d	-0.15886898
154	0x3ec45e2d	0.383531
155	0x3e0b6d34	0.13615876
156	0x3e4a024d	0.1972744
157	0xbee58aae	-0.44832367
158	0x3e00a85c	0.12564224
159	0x3e877cba	0.26462346
160	0x3ecb70d9	0.39734533
161	0xbedbeaaa	-0.42952472
162	0xbb302caa	-0.002688209
163	0x3e8d54b4	0.27603686
164	0x3d0b1f84	0.033965603
165	0x3ec47208	0.3836825
166	0xbcbda398	-0.023149297
167	0x3cd1dfc8	0.025619403
168	0x3e53bac6	0.20676717
169	0x3ee24ceb	0.4419931
170	0x3e4b8e30	0.19878459
171	0x3e5b6905	0.2142678
172	0xbe19ffb5	-0.1503895
173	0x3e4bda16	0.19907412
174	0x3d8ac8f7	0.06776612
175	0x3ebc045f	0.36722085
176	0x3cb98218	0.022645041
177	0xbd82ec34	-0.063927084
178	0x3e06bd14	0.13158065
179	0xbe0aa6ae	-0.13540146
180	0xbe47135a	-0.19440976
181	0xbe04382d	-0.12912054
182	0xbe4d2f47	-0.20037566
183	0xbe9217ef	-0.28533885
184	0x3ea657a9	0.32488754
185	0xbe118112	-0.14209393
186	0xbea34575	-0.3188893
187	0x3edda449	0.43289402
188	0xbf0519dd	-0.5199259
189	0x3d0aac8f	0.03385597
190	0x3dd760f0	0.10516536
191	0xbe46cb6d	-0.19413538
192	0xbe8bf34e	-0.27334064
193	0x3ea2cfaf	0.31799075
194	0xbe0a13cd	-0.13484116
195	0x3ac0552e	0.0014673823
196	0x3e90d5f6	0.2828824
197	0x3da84e7f	0.08218097
198	0xbe8af251	-0.27137998
199	0xbbea6e73	-0.00715428
200	0x3db4fae3	0.08836915
201	0x3e31c7c7	0.17361365
202	0x3dabab02	0.083822265
203	0x3e583325	0.2111326
204	0x3e7dbd1c	0.24779171
205	0x3e154a40	0.14579105
206	0x3caf3b18	0.021390483
207	0x3e1f779f	0.15572976
208	0xbed54750	-0.4165597
209	0x3e9c2e85	0.30504242
210	0xbd2ffcc7	-0.042965677
211	0x3e19ba70	0.15012527
212	0x3eadba24	0.33931077
213	0x3e9bc3e9	0.30422905
214	0x3e19d328	0.15021956
215	0x3d9b8cc6	0.0759521
216	0xbeadf101	-0.33972934
217	0xbd0847b7	-0.033271518
218	0x3e90e275	0.28297773
219	0xbe02954c	-0.12752265
220	0x3e6705e3	0.2256084
221	0x3e99ba51	0.3002496
222	0x3e0f9d93	0.14024954
223	0x3ea54180	0.32276535
224	0x3edb60e5	0.42847362
225	0xbea6da22	-0.32588297
226	0x3e291e9d	0.16515584
227	0xbd980d99	-0.074244685
228	0x3deb8f30	0.1150192
229	0x3e85795e	0.26069158
230	0xbec9e0f6	-0.39429444
231	0xbebc3c15	-0.3676459
232	0x3cea72d4	0.028619207
233	0x3f4b8029	0.7949243
234	0x3e7fb47a	0.2497119
235	0x3dfc4423	0.123176835
236	0x3dc2d036	0.09512369
237	0xba96fd07	-0.00115195
238	0x3e7d59bd	0.24741264
239	0x3de6a429	0.1126178
240	0x3e9db7af	0.30804202
241	0x3ec4a907	0.38410208
242	0x3d31be52	0.043394394
243	0xbe9dcab2	-0.30818707
244	0x3ef14ea2	0.47130305
245	0xbedd0870	-0.431705
246	0x3e95f8c6	0.29291362
247	0xbeeec41f	-0.46634004
248	0x3e9d4068	0.307132
249	0x3db8067b	0.08985611
250	0xbe6f8784	-0.23391539
251	0xbee4939d	-0.4464387
252	0x3e90d8c9	0.28290394
253	0x3e4793e6	0.19490013
254	0x3e855b23	0.26046094
255	0x3b8fdac7	0.004390094

fc4.bias f4 [4]
0	0x3eae8ebe	0.3409328
1	0x3ec3febb	0.3828028
2	0x3e1ab915	0.15109666
3	0x3e99d412	0.3004461
