min_success.pth (torch_old, 205727 bytes, 8 tensors)

fc1.weight f4 [256, 37]
000000 73 4e a6 3c ee 41 a7 3d 95 ee ef bd fc 9b ae bd
       0.02030108 0.08166872 -0.11715428 -0.085258454
000010 01 17 7b be 66 47 4a 3e 2c f6 a2 bd 31 9f 17 3e
       -0.24520494 0.19753799 -0.0795711 0.1480682
000020 e8 49 56 bd 7f 82 dc bd 3c 79 34 bd dc 2e 05 be
       -0.052316576 -0.10767078 -0.04406093 -0.13006157
000030 4e 77 3a bd a9 b6 98 bd e9 34 61 be 8a 3e b1 3d
       -0.045523934 -0.07456715 -0.2199284 0.086545065
000040 bc e3 45 bd 43 df 50 3e 3e 59 1c bc bb 01 e8 be
       -0.048312888 0.20397668 -0.009542761 -0.4531382
000050 ec 2d 9a 3c 87 2d 62 3e 80 59 22 be 3a 81 9e 3e
       0.018820725 0.2208768 -0.15854454 0.30957967
000060 df c2 9b 3a b7 95 0d bb 99 7c 83 3e 8e 26 f8 bd
       0.0011883638 -0.002160413 0.25680998 -0.12116729
000070 93 1a f3 bd 85 29 22 3c 92 58 1a bd 05 ee 11 3e
       -0.11870303 0.009897594 -0.037682123 0.14250953
000080 21 5f 2e be a1 22 ba bd ae 44 8f be 5e 75 34 be
       -0.17028476 -0.09088636 -0.27982086 -0.17622897
000090 e2 65 c2 bd a2 08 20 3e 45 2c a4 bb fe 7b bf bc
       -0.09492089 0.15628293 -0.00501016 -0.023374554
0000a0 2b 31 c3 3d fb 6a c9 be 07 25 26 3d 21 c4 c9 bc
       0.095308624 -0.39339432 0.040562656 -0.024629654
0000b0 5e aa a4 be 61 32 a9 be 69 d0 ea be 78 84 62 3e
       -0.3216123 -0.3304625 -0.4586213 0.22120845
0000c0 be ad 40 be 8f f0 8b bb d5 02 db bc 6b 1e 0f 3e
       -0.18816277 -0.00427062 -0.026734749 0.13976447
0000d0 90 50 a2 3d 18 20 99 3c 75 35 42 bc 50 71 3f be
       0.07925522 0.018692061 -0.011853565 -0.18695569
0000e0 b3 ca fc 3d 95 2f 7e bc 1e 13 b4 be 2d 84 55 be
       0.12343349 -0.015514274 -0.35170835 -0.20851202
0000f0 67 e4 3e 3e 35 30 46 3e 9a 16 d5 bd 40 24 01 3e
       0.18641816 0.19354327 -0.104047015 0.12611485
000100 73 ad 50 bd 60 3e d3 bb a8 74 37 3e 9b 1c f8 3c
       -0.050946664 -0.0064466447 0.17915595 0.030287078
000110 a0 07 10 3e 32 32 37 3e f8 04 bd be 7d 53 0f be
       0.14065409 0.17890242 -0.36917853 -0.13996692
000120 bd 7a 60 3d 86 22 a7 3c b6 d9 85 3d 70 9f 28 3e
       0.054804552 0.020402204 0.06535666 0.1646707
000130 1f f9 6c 3d 2a 79 31 bb 2a e0 38 3e 43 32 81 be
       0.057854768 -0.0027080276 0.18054262 -0.2523366
000140 4c 4b 65 be ef ff c3 3e 5e 7f f3 3d e1 db 94 be
       -0.22392005 0.382812 0.11889528 -0.29074004
000150 5c de 10 3c e4 81 51 bb 05 e3 c8 bc 35 7a e6 bd
       0.008842077 -0.003196829 -0.024522314 -0.11253778
000160 68 4d b8 3e de 30 30 be 74 6f d1 3d f1 2f 97 3c
       0.35996556 -0.17206141 0.10226336 0.018455477
000170 e3 1f 84 3e e2 ed 43 3e 80 4a ac be 93 aa c9 3d
       0.25805578 0.19133714 -0.3365059 0.098469876
000180 d0 a4 68 3d f5 8a 47 3d be b4 9c bd 95 45 27 be
       0.056797802 0.048716504 -0.07651661 -0.16335137
000190 a1 15 58 3e f7 9f b9 bc 10 3f 8c 3d 91 f8 9a bd
       0.21102001 -0.022659285 0.06847966 -0.075669415
0001a0 71 ff 5a be b6 10 70 bd c4 8e 5c bc ef 6b 26 be
       -0.21386506 -0.058609687 -0.013461772 -0.16252111
0001b0 e5 86 02 3e fb 64 f5 3d 97 fd c6 bc d4 21 18 3e
       0.1274677 0.11982151 -0.024290843 0.14856654
0001c0 71 3b 14 be 5f 2b 0a 3e 2b de 26 be b8 92 f1 bd
       -0.144758 0.13493107 -0.16295688 -0.117955625
0001d0 f0 11 38 be 94 33 e8 3d 28 b5 5b 3a 1f f4 d3 3c
       -0.17975593 0.11337963 0.00083811814 0.025873242
0001e0 5b e9 80 3e cc 8c ef bd 4b 85 c6 bd e5 ca 40 3e
       0.25178036 -0.11696777 -0.09693392 0.18827398
0001f0 e5 5a 83 be a1 88 31 be 73 08 e7 bd 58 d3 94 bd
       -0.25655285 -0.17337276 -0.112809084 -0.07266873
000200 00 4e 0d be f1 e3 f0 bd 0e 9e 05 bc 90 e1 98 3d
       -0.13799286 -0.117622264 -0.008155359 0.07464898
000210 d6 93 85 be 7a 30 b5 bd 86 03 eb 3d 48 42 e1 be
       -0.26089352 -0.08847137 0.114752814 -0.4399588
000220 ba a8 4b 3c bf 53 f6 bd 52 ea b0 3d a6 0e 6e bd
       0.012430364 -0.12027692 0.08638443 -0.05811944
000230 44 41 f3 3d c7 4b cf 3d 56 2e 0d be ec 53 f2 bc
       0.11877683 0.10121875 -0.13787207 -0.029581033
000240 13 37 1d 3d be 02 82 be 23 4d a9 3e 74 6e 56 bd
       0.0383826 -0.25392717 0.33066663 -0.05235143
000250 db 54 6c bd 21 9a ac bc d4 38 e9 bd 62 1b f2 bd
       -0.057698112 -0.021069588 -0.11387792 -0.11821629
000260 84 42 24 3d aa c3 af 3e 0f 7e c7 be 53 c2 37 bf
       0.040102497 0.34328967 -0.38963363 -0.7178089
000270 51 19 1f be b9 f6 cc bf e8 9f 60 3d a0 b3 db bc
       -0.15537001 -1.6012794 0.05484 -0.02681905
000280 b9 4e 63 3c d9 44 79 bd c6 41 8b bd e6 c9 0a be
       0.013873749 -0.060856674 -0.06799655 -0.1355358
000290 2b 38 f7 3c 23 5b 94 3d 0c b9 0b 3d 20 a0 13 3e
       0.03017815 0.072439454 0.03411202 0.14416552
0002a0 6a d6 e8 bd 68 83 3c 3d 60 2f 6d 3e a6 98 fb bc
       -0.11369021 0.046023756 0.23162603 -0.030712437
0002b0 bd e7 82 3e c6 ec 95 3d d9 93 27 3d 42 cf 00 3e
       0.25567427 0.073205516 0.040912483 0.12579063
0002c0 1f 19 e3 3d 04 56 57 bd d4 81 1a 3e ca 4a 33 bd
       0.11088776 -0.052572265 0.15088588 -0.043772496
0002d0 64 e2 05 3e 34 11 07 bd fd 3e 61 3e 30 3d a7 3c
       0.13074642 -0.03297539 0.21996684 0.020414919
0002e0 97 a3 e5 3b 7c e8 63 3d 5f 07 bb bd 85 87 1d be
       0.007008027 0.055641636 -0.09132265 -0.15383728
0002f0 4b 81 48 be 56 d7 aa 3d b3 a7 28 3e 45 e8 02 be
       -0.19580571 0.08341853 0.16470222 -0.12783916
000300 18 c2 8a bc 5b f3 e3 be b4 dc 6b bf 19 86 2b be
       -0.016938254 -0.44521603 -0.9213364 -0.16750373
000310 d4 d0 78 be 56 0a 2b 3d 83 fa 97 bd f5 2c 08 be
       -0.24298412 0.041757904 -0.07420828 -0.132984
000320 25 4e 6c bd e0 81 11 3e 28 fe 64 be d4 70 66 be
       -0.057691712 0.142097 -0.22362578 -0.22503978
000330 a0 bc 84 bd fa de de 3d 14 d0 63 be e4 14 db 3d
       -0.0648129 0.10882373 -0.22247344 0.10697344
000340 48 9a 98 3d c7 d7 76 be 74 19 86 bc 4d 7e 1f be
       0.07451302 -0.2410575 -0.016369559 -0.15575524
000350 a1 4f a8 3d 85 eb 7c be e4 bf 00 bd 88 35 83 3d
       0.08218313 -0.24699219 -0.031433 0.06406695
000360 88 01 72 be 1b 5f 8b be 0c 14 a9 3d c4 0b 75 be
       -0.23633397 -0.27220997 0.08255777 -0.2393027
000370 3d 9c d5 bc c3 60 66 3d 68 bc 9e 3e 6c e6 0c be
       -0.026075477 0.056244623 0.31003118 -0.13759774
000380 79 cc a4 be 1d b0 62 be 2a 7b 40 bf 32 aa 45 bd
       -0.3218725 -0.22137494 -0.75187933 -0.048258014
000390 19 81 51 bd 10 ec 08 bd 6a 6d b0 3d 9c da a7 3e
       -0.051148508 -0.03342825 0.08614619 0.32783973
0003a0 a8 9c 2b bd 73 2e 3a 3e 18 c3 75 bc f0 5c 4b 3d
       -0.041897446 0.18181781 -0.015000127 0.04964918
0003b0 d5 ef 5a bd e4 4c 46 be 69 58 43 3d 18 a1 a6 3c
       -0.053451378 -0.19365269 0.047691736 0.020340487
0003c0 87 1c ad 3d 2c 66 9b 3e 15 2c ea 3c 40 2d 62 3d
       0.08452707 0.30351388 0.028585473 0.055218935
0003d0 91 b3 17 bd 3b 4b 29 be ca f3 2d 3e 12 48 05 be
       -0.037036482 -0.16532604 0.1698753 -0.13015774
0003e0 07 6f 14 be 94 5a 42 3e 05 f3 7c 3d 34 fa b2 3e
       -0.14495479 0.18979865 0.0617552 0.34956515
0003f0 e5 3f 17 3e 20 5d 94 bd b8 e5 d3 bd 48 00 cd 3c
       0.14770468 -0.07244325 -0.1034655 0.025024548

fc1.bias f4 [256]
000000 48 ce 77 3d f1 0e 38 3d 90 e3 0f bc f9 46 85 bd
       0.06049946 0.044936124 -0.0087822825 -0.065076776
000010 db 57 f1 3d 08 de 14 bd 00 bf 07 be ec 20 c3 bd
       0.11784335 -0.036344558 -0.13256454 -0.09527764
000020 56 2a 22 be 54 59 1e be dc 20 96 bc be 83 0a 3e
       -0.15836462 -0.15463763 -0.018326215 0.13526818
000030 8f 0c 35 be a3 59 e9 bd f5 57 1f be 7b 0a cd 3d
       -0.17680572 -0.1139405 -0.15560897 0.100117646
000040 af a8 95 3d dc 55 db bd 55 aa aa bd 3c 2c 1f be
       0.073075645 -0.10709736 -0.083332695 -0.15544218
000050 33 0a 60 bd a7 d1 55 3d 2e 63 ea 3c 36 94 e2 bd
       -0.054697227 0.052201893 0.028611746 -0.11063425
000060 50 77 1c bd 6a 6f 37 3d 82 a8 a2 3d c7 40 07 3e
       -0.038199723 0.044783987 0.079422966 0.13208304
000070 2a 19 98 bc 74 26 0a 3e 4a 5b 8b 3d 38 6f 54 bd
       -0.018566687 0.13491231 0.068045214 -0.05186388
000080 78 af 26 3c f7 1f 9f 3d 4d 40 5e 3c 2b dc 1b 3e
       0.010173671 0.07769769 0.013565135 0.15220706
000090 f8 29 19 3d dd a1 2a 3d b7 b2 d6 bd 86 99 0c 3e
       0.03739354 0.04165827 -0.10483306 0.1373044
0000a0 35 a7 6f bd 52 cb b8 bc 12 a6 97 3d 74 19 3b 3d
       -0.05850907 -0.022557888 0.07404722 0.04567857
0000b0 ed 2b f6 bb 27 9c a0 bd 13 66 27 be c5 95 c9 bd
       -0.0075125606 -0.07842284 -0.16347532 -0.098430194
0000c0 a9 bf 2c 3c 12 3f 12 3c bd ba 75 bd 4f 80 fd 3d
       0.010543742 0.00892617 -0.05999254 0.123779885
0000d0 cb 79 8d bc 0d de 2a be 00 46 15 bc fd cb ab bd
       -0.01726999 -0.16686268 -0.009110928 -0.08388517
0000e0 f6 72 24 3e ff 57 82 bd 53 52 ec 3d c5 89 02 3e
       0.16059479 -0.0636444 0.115391396 0.12747867
0000f0 bb b3 1e 3e d8 94 44 3d 65 b4 d4 3d 83 84 00 bd
       0.15498249 0.04799351 0.1038597 -0.031376373
000100 28 a9 01 3e 0f a4 b6 bd d4 c3 fe bd 51 8a 21 be
       0.12662184 -0.089180104 -0.12439695 -0.1577542
000110 2a 79 20 be 9e 45 8b bd 61 62 35 be c2 d3 ba 3d
       -0.1567122 -0.06800388 -0.1771331 0.09122421
000120 e5 40 25 be 76 5e f7 3d b5 27 64 bc a1 cd 9d bd
       -0.16138037 0.12078564 -0.0139254825 -0.07705236
000130 63 32 e9 3d 46 ff 88 bc 5f a2 a7 bd ac b7 db 3d
       0.11386564 -0.016723286 -0.08185267 0.10728392
000140 3a ba 6e be da 93 9c 3d 0a 00 07 3b dd 92 a9 bd
       -0.23313227 0.07645388 0.0020599389 -0.08279965
000150 05 79 6f 3d 75 3a fa bd 24 f4 f9 3b 4c d8 a8 3d
       0.058465023 -0.12218181 0.007627981 0.0824438
000160 89 09 84 3d 70 b5 29 3d 08 fc dd 3d fd 27 3d be
       0.06447131 0.041432798 0.10839087 -0.18472286
000170 fa 52 26 bd 71 1d e5 3d 8f 01 5b bc 00 ad 89 3d
       -0.040606476 0.11187256 -0.013367071 0.0672245
000180 13 a2 8f 3d b8 ee 40 be 3b 0d e7 3b 99 e7 10 3e
       0.07013335 -0.18841064 0.0070511377 0.14150847
000190 47 1e 10 bd 0e b2 3e be 10 a9 7d bd d0 fb a9 bc
       -0.035185125 -0.1862261 -0.06192881 -0.020749956
0001a0 59 1e 08 be 28 8a 0f be cb 57 a4 3d fe e7 13 be
       -0.13292827 -0.14017546 0.08024558 -0.14443967
0001b0 05 b4 33 be ee 7a b5 3d 0b 26 99 3d 80 67 98 3c
       -0.17549141 0.088613376 0.07477959 0.01860404
0001c0 ca b3 0c 3e 40 3f 8d 3c 9b c0 e1 3d 8b 77 90 bd
       0.13740459 0.017242074 0.11023065 -0.07054051
0001d0 7a c5 f2 bd cb 64 2f 3d 62 6e d0 bd 9a 7b 1d bd
       -0.11854072 0.042820733 -0.10177304 -0.038447954
0001e0 c1 96 6c bd 01 7d 1b 3c 79 13 af bd f3 7c 9f bd
       -0.057760958 0.0094902525 -0.08548636 -0.07787504
0001f0 7d f9 35 be 81 5b aa bd 03 82 59 3d cd d4 98 3d
       -0.17770953 -0.08318234 0.053102504 0.074624635
000200 0b 7a c3 3d 67 5d 3f bd d3 b0 e3 bd a2 42 b7 3d
       0.09544762 -0.046719935 -0.11117711 0.08948256
000210 0f f6 35 3d d7 25 32 bc 9a 62 0c 3c 0b fb aa bd
       0.044424113 -0.0108732795 0.00856843 -0.08348664
000220 a9 b8 c7 bd 4d 76 38 be 49 50 ab bd 41 37 31 be
       -0.09752018 -0.18013878 -0.083649226 -0.17306234
000230 41 c1 8f bd 6b 2b cb 3c a4 a3 f2 3c 0c 4a a1 bd
       -0.07019282 0.024800977 0.029619046 -0.078754514
000240 fb 8a 12 bd c8 11 8f bd b3 20 e7 bd 77 24 1b 3e
       -0.035777073 -0.069858134 -0.11285534 0.15150629
000250 d6 1d 56 be 7b 09 01 3e df bf 31 bd 77 89 20 be
       -0.20909819 0.12601273 -0.043395873 -0.15677439
000260 27 cd 0d be bf e5 04 be 77 9d e7 bc d5 27 57 3d
       -0.1384779 -0.12978266 -0.028273327 0.05252822
000270 27 5c 20 3d f9 c7 16 be 24 b1 cb 3d be e4 be 3d
       0.039150383 -0.14724721 0.09945896 0.09320973
000280 0c 47 83 3c cf 13 1a 3e e9 b3 24 3d fa a0 da bc
       0.016025089 0.15046619 0.04021064 -0.026688088
000290 20 1f 8c 3d 15 b0 f0 bd 99 9f 18 3c df 4b df bd
       0.06841874 -0.11752335 0.009315395 -0.10903143
0002a0 5b 40 2e bd be 85 1c be b2 e7 1a 3e 8c fd a0 bd
       -0.042541843 -0.15285394 0.15127447 -0.0786086
0002b0 03 00 70 3d 41 a5 2b 3e 29 b8 79 bb 1d 22 50 bd
       0.05859376 0.16762258 -0.0038104153 -0.050813783
0002c0 23 7a 05 3e 46 86 0f be a6 19 dd 3d a9 16 6b be
       0.13034873 -0.14016065 0.10795908 -0.22957863
0002d0 76 8c 0a 3e 48 eb 5e bd bc e1 02 be 6f b2 53 bd
       0.13530144 -0.0544236 -0.12781423 -0.05168384
0002e0 b9 74 a5 bd f0 e7 69 3d 34 e5 21 3e 7c 13 98 3d
       -0.08078904 0.05710596 0.1581009 0.07425591
0002f0 24 96 a2 3d b0 c5 a3 3d ff 87 04 be 9e 4b c3 3d
       0.07938793 0.0799669 -0.12942503 0.09535907
000300 dc f3 3e 3d f7 2c 3b 3d 3c cf 1f bc 4a 64 f2 3c
       0.04661928 0.04569718 -0.009753998 0.029588837
000310 1d f3 fa 3d 10 45 b4 bd 31 57 2f be b1 4e c0 bd
       0.122534014 -0.08802235 -0.17123105 -0.09390009
000320 06 3e b9 3d 03 cf 0d bd 57 c9 cd bd 89 fb 0e 3d
       0.09045033 -0.03462125 -0.10048168 0.03490785
000330 a9 74 c5 bd f7 26 bc bd c9 98 cd 3d df 24 13 3e
       -0.09641392 -0.091871195 0.10038907 0.14369534
000340 fe 4a cd 3d 26 bf a7 bd 7d 53 1e be 0c ae 08 be
       0.10024069 -0.081907555 -0.15461536 -0.13347644
000350 aa 6f 2e 3c 4f 5d f1 bd c2 67 41 3d 3c 8f 17 be
       0.01064674 -0.11785375 0.04721809 -0.14800733
000360 88 9f cb bd 58 d6 f3 3c ec c5 0f 3c 92 bb e3 bc
       -0.099425375 0.029765293 0.008775216 -0.027799401
000370 7d 98 c9 3c 5f 6d 0d be 50 5c c0 bd 0b fa 1e 3d
       0.024608845 -0.13811253 -0.09392607 0.03881268
000380 48 38 5c be 02 e9 85 bd 72 40 54 bc 1c 8d d2 bc
       -0.21505845 -0.06538583 -0.012954818 -0.025702052
000390 3d 62 ca 3d 70 90 30 be 14 d2 07 bd 6e af cf bb
       0.09882019 -0.17242599 -0.03315933 -0.0063380515
0003a0 ea a3 4b 3c cf de 88 bd f3 30 27 3d c4 72 10 be
       0.012429217 -0.06683122 0.040818166 -0.1410628
0003b0 f9 5d b4 bd 53 8f 68 bd 05 ed 2c bc 70 0e 27 be
       -0.08806986 -0.05677731 -0.010554557 -0.16314101
0003c0 ea 80 7b 3d 86 ef ea 3d 2b a3 1a be 97 20 e5 bc
       0.06140224 0.11471467 -0.15101306 -0.027969642
0003d0 40 e7 1e be 12 ed 3f bd 13 e2 7b bd a2 7d e8 3d
       -0.15517902 -0.046856947 -0.061494898 0.113520876
0003e0 16 39 c5 3d f6 02 25 3c 81 b4 d2 bc 96 56 42 be
       0.09630029 0.010071507 -0.025720837 -0.18978342
0003f0 c5 66 dd bc 7d 08 01 3e e7 c6 8a ba 96 06 ba b9
       -0.027026543 0.12600894 -0.0010587842 -0.00035481591

fc2.weight f4 [128, 256]
000000 ae f2 4d bd 7b 5c 8d 3c 0f ce 19 3d 33 5a 24 bc
       -0.050280266 0.017256012 0.03755003 -0.010031271
000010 4e d5 0e ba a5 84 12 3d af 96 cc 3c 06 42 e1 3c
       -0.0005448655 0.03577103 0.024974195 0.027497303
000020 77 b1 ca 3c 0a 74 01 3b 7b 8c 67 3b 14 89 9f bd
       0.024742825 0.0019753003 0.0035331536 -0.077898175
000030 d7 10 62 bc 03 96 43 bd 9a a8 18 3b 1b c8 28 bd
       -0.01379796 -0.047750484 0.0023293854 -0.04120646
000040 eb 3a 20 bd b0 fd 23 3d 26 b3 4d bc 1d d8 91 bd
       -0.03911869 0.040036857 -0.012554919 -0.071212985
000050 7b ff 38 bd aa 56 2a 3c f4 0a e4 bc 8c 86 b5 bd
       -0.04516552 0.010396639 -0.027837254 -0.088635534
000060 14 91 b4 3b b6 34 ce 3b 5f 94 9a 3c 48 75 84 bd
       0.0055104587 0.0062929047 0.018869577 -0.06467682
000070 18 67 ec bc 8f ad 3c bd b5 55 d3 bd e9 fc bd 3a
       -0.028857753 -0.046063956 -0.10319082 0.0014494929
000080 46 bb 16 3d 76 9a bf bc 88 f1 f0 3c 4f f5 2e 3c
       0.03679969 -0.023389082 0.029412046 0.010678603
000090 f9 2d 79 bd da 88 d4 bc b6 2f b6 3c ba ec de 3c
       -0.06083486 -0.025944162 0.022239547 0.02721249
0000a0 03 73 f8 bc 03 c2 ad bc 1e 5d 87 bd 43 68 58 bd
       -0.03032828 -0.021210676 -0.066095576 -0.052833807
0000b0 71 e7 95 bc 55 9b 79 3b 84 a8 90 bb 83 0b b1 3c
       -0.018298836 0.003808697 -0.00441462 0.021611935
0000c0 0f 3b 92 bd 13 65 38 3c a0 10 70 bd b0 99 25 bd
       -0.07140171 0.011254567 -0.058609605 -0.04042977
0000d0 90 b5 25 3d f2 6a 05 bd e8 43 9b bd e8 65 8b bd
       0.040456355 -0.032572694 -0.075813115 -0.068065464
0000e0 a3 8a 0f bd ad a2 19 bd c4 94 88 bd f1 67 77 3d
       -0.035044324 -0.037508655 -0.06669 0.06040186
0000f0 df 07 38 bc 0d ab f6 bc 4e 2e d8 3c c0 66 b4 bd
       -0.011232345 -0.03011086 0.026389267 -0.088086605
000100 b0 ff 97 bb 1a 95 12 3d 1e 48 59 3c 84 05 04 3d
       -0.0046386346 0.035786726 0.013261823 0.032231823
000110 bd e0 18 bd 9d a3 95 bd fc 5b 5c 3d 3f bd b5 bd
       -0.037323702 -0.073065974 0.05379866 -0.088739865
000120 db c4 1a bd dc 8f 36 3d 65 a4 3f bd 0e 2b 11 bd
       -0.037785392 0.04457079 -0.04678764 -0.03544145
000130 7b d0 2e bd 03 68 fd ba 94 36 fa bc ad fe 9e 3b
       -0.04267929 -0.0019333366 -0.030543603 0.004852137
000140 89 4b 62 3d f0 63 a9 bd f5 7a 05 3d 2e 96 b3 bc
       0.055247817 -0.08271015 0.032587964 -0.021922197
000150 a8 cd a3 bd ba 62 5b 3c f8 eb 65 bd 86 95 fd 3c
       -0.0799821 0.013390237 -0.05613324 0.030955087
000160 1c 46 11 bd d5 d6 85 bd a2 9c a3 bd c0 73 45 3c
       -0.035467252 -0.065351166 -0.0798886 0.012051523
000170 d0 64 95 bd d3 df 4c 3c 52 58 05 3d 9e 3b 8c bd
       -0.07294619 0.012504536 0.032554932 -0.068473086
000180 fa 91 9d 3c 0a c9 49 bd 01 39 17 bc 65 17 88 bd
       0.019234646 -0.04926399 -0.009229899 -0.06645087
000190 13 93 de 3c aa 58 90 bd 29 7d 82 bd cb 33 0d bd
       0.02716974 -0.07048161 -0.06371529 -0.03447322
0001a0 c4 54 63 3b 8c f4 e8 3a 28 52 a3 bd c1 c6 8d b8
       0.0034687975 0.0017773076 -0.079746544 -6.760425e-05
0001b0 0d 5f 0d ba b1 47 0e bd 94 5c 37 bb ac 22 7c 3d
       -0.0005392887 -0.03473634 -0.0027978765 0.061556503
0001c0 c3 29 b2 3c 20 ca 2d bd 6c 7a 82 bd 08 de 9a bd
       0.02174843 -0.04242909 -0.06371006 -0.0756188
0001d0 da 74 81 3c b1 b0 50 bc a3 3e 1a bc b8 6b 9d 3c
       0.01580279 -0.012737439 -0.009414348 0.019216403
0001e0 82 65 1c bd 6c 50 92 bd 82 c8 6a bd f7 15 9f bd
       -0.038182743 -0.071442455 -0.057320125 -0.07767861
0001f0 f0 92 14 3d ae 2d a8 3c b0 ae 43 bd 4d 6d a7 bc
       0.036272943 0.020529594 -0.047774017 -0.02043786
000200 b7 73 93 bc 64 64 f5 bc c1 28 6c bd c0 25 83 bb
       -0.017999513 -0.029955097 -0.057656053 -0.004002303
000210 98 5f 19 bd df 7d 89 bd 09 14 d3 bc 2a 16 3d bd
       -0.03744468 -0.06713461 -0.02576639 -0.046163715
000220 ab b4 2c bc 13 95 42 bc 09 51 09 3c e2 a9 ec 3c
       -0.0105411215 -0.011876362 0.008381137 0.0288896
000230 48 7f 85 bd 0a 0f 12 bd 98 9c 3e 3d 98 3a 5d 3c
       -0.065184176 -0.035658874 0.04653606 0.013502739
000240 ea b1 02 bd 37 24 fa 3c aa 4f 86 3c 90 67 10 3c
       -0.031907953 0.030534847 0.016395409 0.008813754
000250 7a 58 5d bd 6b 3a 4c 3d e5 67 93 bd 51 3d a5 bd
       -0.054039456 0.0498604 -0.07197551 -0.08068336
000260 0f 61 1e 3c 3a f6 24 bd b4 96 aa bd 19 c9 00 3d
       0.009666695 -0.040273882 -0.083295256 0.03144178
000270 f2 d1 a2 bc b9 44 64 bd 8e 65 5c 3c 04 0c 22 3d
       -0.0198755 -0.0557296 0.013451947 0.03956224
000280 b6 c7 8b bc f0 96 11 3d 20 f0 a9 3c 29 ae 79 bc
       -0.017063003 0.035544336 0.020744383 -0.015239277
000290 1c ee 55 bd ce 63 7f bd 11 93 8b 3c a0 2c e4 bc
       -0.052229032 -0.06235104 0.0170379 -0.02785331
0002a0 d0 6d 6e bd 16 4c 8a bd 3a a7 5f bd d6 28 75 bc
       -0.058210194 -0.067527935 -0.05460284 -0.014963349
0002b0 09 03 3c bd 94 83 99 bd 07 0a ea bc f4 4c 19 bd
       -0.045901332 -0.074958 -0.028569235 -0.037426904
0002c0 9f 13 00 bd 63 92 0b 3d 10 94 de 3c 81 d5 13 3d
       -0.031268712 0.034075152 0.027170211 0.036092285
0002d0 13 80 42 3d 68 34 97 bc b1 5f 60 bd 51 64 c9 bc
       0.047485422 -0.018457606 -0.05477876 -0.024583967
0002e0 ff a6 a9 bb 74 94 3c bd 9d ae 5e 3c c7 51 09 3d
       -0.005177378 -0.046040013 0.013591436 0.033525255
0002f0 fd e6 89 bd 56 98 9c 3a d2 2d 4e bc d5 30 da 3c
       -0.06733511 0.0011947255 -0.012584167 0.026634613
000300 e0 ea 1c bd 45 77 4b 3d 7c 90 b9 bc 03 31 e7 3c
       -0.03830993 0.04967429 -0.022651903 0.028221613
000310 06 0e 8c bd f7 f6 07 3c 72 01 65 bd 2d a3 97 bd
       -0.06838612 0.008298627 -0.05590958 -0.0740417
000320 9c 2d cb bd 7e 46 29 ba 2f 7d 2e bd c5 53 24 bc
       -0.09920809 -0.00064573425 -0.042599853 -0.010029738
000330 77 5a 4c bd 73 e1 e9 bc b2 cb 0e bd 0f de cf 3a
       -0.04989096 -0.028549885 -0.034862228 0.0015859025
000340 fe 2b 67 3d ac d1 7a bd 1c 37 08 3c ab 06 0f bd
       0.05643844 -0.061235115 0.00831392 -0.03491847
000350 82 7a 8d 3c 6c dd d5 bc f0 b8 02 3c 3b d2 4a bd
       0.01727033 -0.026106559 0.007978663 -0.049516898
000360 13 ca d9 3c e8 30 48 3d 36 9f 29 bd 72 26 76 bd
       0.026585614 0.048874766 -0.0414116 -0.060095258
000370 fb d6 af bc a6 79 a2 bd 02 d0 08 3c 85 26 eb bc
       -0.021464815 -0.07933359 0.008350374 -0.028704891
000380 9f e8 ad bd 4c 17 55 3c 6e 0c 83 bd 22 31 58 bd
       -0.084916346 0.013006043 -0.06398855 -0.05278123
000390 4b cc 30 3c a6 81 5b 3c d3 ed 26 3d 52 39 3d 3d
       0.010790895 0.01339761 0.04075415 0.046197243
0003a0 02 9c 72 3c 43 98 08 bd 1e 85 c6 bc 93 4d 0d 3d
       0.014807703 -0.033348333 -0.024233397 0.03449781
0003b0 07 d5 76 bd 0e 90 1a 3d ef 42 4a 3c c1 7a 56 3c
       -0.060261752 0.037735038 0.01234506 0.01309079
0003c0 57 01 74 3b 3c b9 57 bd 04 94 13 3c b9 05 50 bc
       0.0037232244 -0.052666888 0.009007458 -0.012696677
0003d0 87 64 04 bc ab cc 25 bd 89 0f cd 3c 03 1a 89 bc
       -0.008080608 -0.04047839 0.025031822 -0.016736036
0003e0 5c ad 36 bc 1e 8a a6 bd f3 9b 66 3d 62 6c 2c bd
       -0.0111497305 -0.081318125 0.05630107 -0.04209555
0003f0 af f8 c5 3c 7b af 23 3d a5 a1 19 3c ce c9 b9 bd
       0.024166433 0.039962273 0.009376918 -0.09071694

fc2.bias f4 [128]
000000 dd a1 9d bd 49 3d b2 3d 6c 8e 46 bd b8 77 07 bc
       -0.076968886 0.087030955 -0.048475668 -0.008268289
000010 aa 0d 82 bc 01 e9 81 bd a1 6e 30 3d 2c 59 80 bd
       -0.015875656 -0.0634327 0.043074254 -0.06267008
000020 be c2 07 3d b3 45 54 bd 68 df e2 3b 49 a8 d1 bc
       0.033144705 -0.051824283 0.0069236048 -0.02559294
000030 b5 52 94 bd a7 6c 00 3d 30 1a 36 bc 86 0a 53 bd
       -0.072423376 0.03135362 -0.011114642 -0.051523708
000040 64 8e 25 bd 96 7b 7d bd d0 75 af bd 0e 45 24 bd
       -0.040418997 -0.06188544 -0.08567393 -0.04010492
000050 3e c6 36 bd 2f e0 99 bb cd 88 0d bd 1b f3 82 bd
       -0.044622652 -0.004695914 -0.03455429 -0.06394025
000060 38 35 31 bd 2f 83 48 bd cc 05 3e bc 00 86 26 bd
       -0.043263644 -0.04895323 -0.011598062 -0.040655136
000070 9c b1 19 3c 13 4e 25 3c 2e 6e 9c bc 18 da 6a bd
       0.009380724 0.010089415 -0.019095507 -0.057336897
000080 51 f3 68 bc 9c e0 85 bd 56 b1 3a 3d bd 37 79 bb
       -0.014218167 -0.065369815 0.045579277 -0.0038027607
000090 19 db d0 3b ec c1 4c bd 70 d2 e1 3c 96 22 03 3c
       0.0063737747 -0.049989626 0.027566165 0.008003851
0000a0 76 8f 24 bd d5 6b b9 3b 30 7e 20 3d e3 87 83 bd
       -0.040175878 0.0056586065 0.03918284 -0.06422403
0000b0 17 46 51 bd e0 b6 71 bd 73 8d 41 3c a8 44 bf bd
       -0.051092234 -0.059012294 0.011813509 -0.09339267
0000c0 bf b3 01 3c cb 11 84 3c 33 71 c8 bd d2 8b b3 bc
       0.00791639 0.016121766 -0.09787216 -0.021917257
0000d0 5b 3d a9 3c 3c 4e ba 3d 8b 00 83 3d 85 8b ef 3b
       0.02065914 0.09096953 0.06396588 0.007310333
0000e0 51 3f 93 3d cd be 5e bd e1 5d da bc a4 2a 08 3b
       0.07189811 -0.05438118 -0.026656093 0.002077737
0000f0 9a 85 f4 bb e0 9d d5 3c 9f 10 76 3d ed d7 e2 bc
       -0.0074622156 0.026076257 0.060074445 -0.027690852
000100 48 0a 88 bc 40 91 36 3b 41 96 2f 3b 2c 64 aa bd
       -0.016606465 0.0027857572 0.002679244 -0.083198875
000110 d8 0c b0 bc 14 cc 7b bd 7a 49 4c 3d 21 a0 8c bd
       -0.0214905 -0.06147392 0.04987476 -0.0686648
000120 22 0f 8c 3d 66 ec 03 3d fe ad bb bd e1 a2 ef bc
       0.06838824 0.03220787 -0.09164046 -0.029252471
000130 b6 f5 75 bc db 33 55 bd c9 2d 0f bd a8 34 df bb
       -0.015012195 -0.052051406 -0.034955774 -0.006811697
000140 dd 30 43 bc 8d cc 74 3c a5 1b 6a bd 62 fc 89 bd
       -0.011913505 0.014941347 -0.05715527 -0.06737591
000150 ae 95 b7 3a 9d 33 fc 3b 0c 7e b2 3d a8 b7 40 bd
       0.00140064 0.0076965825 0.08715448 -0.04705015
000160 3b 45 1c bc 8e 4e d4 bc 8e f6 a1 3d e5 0c f7 3c
       -0.00953799 -0.025916364 0.07908355 0.030157516
000170 fc a0 48 bc 0d b7 11 3d 14 69 2e bd fe 34 57 3c
       -0.012245413 0.03557496 -0.04258068 0.013135193
000180 df 7c 48 3d 0a 31 04 bd 14 47 af 3d f3 4b 33 bd
       0.04894721 -0.03227333 0.08558479 -0.043773603
000190 02 b2 24 bd b3 e5 e7 3c 4d e6 28 bd 22 66 c4 3c
       -0.040208824 0.028307771 -0.041235257 0.023974482
0001a0 c8 e1 40 3d 88 0c ad bc 69 f4 6b bb 9f 16 8b 3d
       0.04709032 -0.02112414 -0.0036003834 0.06791424
0001b0 15 24 1b 3c 3d b7 5a 3d ff 1d 47 3d 94 66 ec 3d
       0.009469052 0.053397406 0.04861259 0.11543003
0001c0 de 59 4c 3d 48 16 7d 3d 73 c3 33 3c 05 b0 5f bd
       0.04989039 0.061788827 0.010971892 -0.054611225
0001d0 a5 eb 90 bd 5b f7 a1 bd a4 4d 62 3d 40 5f 22 bd
       -0.070761956 -0.079085074 0.055249825 -0.03964162
0001e0 6e 10 af 3d 22 33 13 3d 40 21 84 3c 43 03 18 bd
       0.085480556 0.035937436 0.016129136 -0.037112486
0001f0 93 a1 36 3c a8 97 10 3d bf cc 4a bd 40 b9 4a 3d
       0.011146921 0.03530088 -0.049511667 0.049493074

fc3.weight f4 [64, 128]
000000 2f 68 86 3d 63 94 7d be 92 c8 d7 bc d7 3b 3a 3d
       0.0656284 -0.24763636 -0.026340757 0.045467224
000010 44 ba 84 bd c7 08 24 be d4 9f 61 3e bb c1 3e bc
       -0.0648084 -0.16018973 0.22033626 -0.011642869
000020 81 65 95 bc 35 8e 15 bd b3 8f c7 bd 9e 34 f8 3d
       -0.018236877 -0.036512572 -0.09744205 0.12119411
000030 25 e3 1b 3d a0 cd 9a 3d e0 4c b1 3d d3 ba 5e 3d
       0.03805842 0.07558751 0.08657241 0.05437739
000040 92 ea 04 3e 13 39 03 bd d5 c4 8e 3d dc db ea bd
       0.12980106 -0.032036852 0.069711365 -0.11467716
000050 7c bd 5e bc 0a 21 70 3d fd be 9d 3e 58 76 23 bd
       -0.013594981 0.05862526 0.30809775 -0.039907783
000060 05 dd 57 bd cc 02 03 3d db 63 5e 3e 3a 4e 03 3c
       -0.052701015 0.03198509 0.2171778 0.008014256
000070 6e a1 11 bd 56 fb 07 bd e9 1c 1f 3d ac 33 af bc
       -0.035554342 -0.033198677 0.03884593 -0.021386944
000080 ef e6 ae 3c 3e 4b 92 be 3d 6d 86 3e 45 0d 19 bb
       0.021350352 -0.2857303 0.26255217 -0.0023353857
000090 d1 b9 3e 3d 00 9a e8 bc 88 62 ef bb e8 e9 b0 3d
       0.046563927 -0.028393745 -0.007305447 0.08638364
0000a0 21 26 50 bc fe 7b 08 be 1d 1d d7 3d 5b a4 7c be
       -0.012704403 -0.1332855 0.105036 -0.24672072
0000b0 d7 c8 20 bc 26 4f 9e 3d 40 84 29 3d 8f 6e 76 bd
       -0.009813509 0.0772994 0.04138589 -0.06016403
0000c0 1f 4c f3 3d 48 81 4d be d8 1a 8c bc da 29 76 bd
       0.11879753 -0.20068848 -0.017102644 -0.060098507
0000d0 a9 8c eb 3d 8e 8c b8 3c c6 53 e6 bd da 8b 95 bc
       0.11501438 0.02252796 -0.11246447 -0.018255163
0000e0 f2 df 70 3d 27 c1 05 3e ad 29 82 3d 77 73 0e 3d
       0.05880732 0.13061963 0.06355605 0.034778085
0000f0 16 25 80 bd 05 a5 e6 3c f6 7c 41 bc 79 8e cd 3c
       -0.062570736 0.02815486 -0.011809578 0.02509235
000100 0f fb d5 3d dd 9d b5 3d f4 cd 7a 3d 93 5a db 3b
       0.10448276 0.08868001 0.06123157 0.006694147
000110 b2 44 75 3c 56 93 64 be 3a 7f 43 3e c4 4c 2b be
       0.0149699915 -0.22321829 0.19091502 -0.16728503
000120 f8 d6 c7 bd 53 43 ab bd 27 0c 7f bd 15 15 8b 39
       -0.09757799 -0.083624505 -0.06226745 0.00026527853
000130 64 39 a4 3d e0 f9 25 bd 74 6b 55 be 75 2c f1 3c
       0.08018759 -0.040521502 -0.20841771 0.029440144
000140 92 a8 d9 bd fe 1d 93 bd 33 3f 31 3e c3 11 24 be
       -0.10627855 -0.07183455 0.17309265 -0.160224
000150 c0 bc 89 3d 2e e6 9b 3c f6 e6 74 3b 4e c6 ed bc
       0.06725454 0.019030657 0.0037369109 -0.029025223
000160 80 14 41 3d 8c 7d 14 bd de 6a 48 3c f4 e9 31 3d
       0.04713869 -0.036252543 0.01223251 0.043436006
000170 db 80 9f bc d6 f6 39 be ff c9 97 3e 86 6d 00 3e
       -0.019470623 -0.18160567 0.29646298 0.1254178
000180 43 ae 71 be 7a 67 90 3d 47 0f 58 3b f9 50 09 be
       -0.23601632 0.070509866 0.003296809 -0.13409795
000190 f0 62 48 3c 18 7c 03 3d cb 4e 9c 3a bc 92 af bc
       0.01223062 0.032100767 0.0011925338 -0.021432273
0001a0 6a 95 64 3c 37 b1 21 bd 58 cd 14 3e b3 86 c7 be
       0.013951639 -0.039475646 0.14531457 -0.38969955
0001b0 90 f0 da 3d 3c a9 8f bc a9 48 f4 3d a6 12 d7 bc
       0.10690415 -0.017536752 0.11927921 -0.02625401
0001c0 e6 5f df bd d5 f5 65 be e8 a4 44 3d 54 62 c7 bd
       -0.10906963 -0.22457059 0.04800883 -0.097355515
0001d0 67 e9 b6 3d 1e 97 b7 3d 95 ec 9f bd bd 09 bd 3c
       0.08931237 0.0896437 -0.07808796 0.023075933
0001e0 1a c1 48 3c aa 9e d7 bd 0a a7 15 bc ce c2 a4 bd
       0.01225307 -0.1052831 -0.0091340635 -0.080449685
0001f0 62 40 10 bd 9e 55 ee bd 1b 86 52 bd b5 22 68 bd
       -0.03521765 -0.11637424 -0.051397424 -0.056673724
000200 f3 81 95 3c ae 5c 0b 3d d2 86 f6 bc 80 06 10 be
       0.018250441 0.034023933 -0.030093584 -0.1406498
000210 b9 d3 5b be 45 10 44 be eb 95 b5 bd 76 bf b7 bc
       -0.21467485 -0.19146831 -0.08866485 -0.022430163
000220 b0 5c b9 3d a7 42 7d bc 0c 7f b7 bd e6 34 4b 3e
       0.09050882 -0.015457786 -0.08959779 0.19844398
000230 c3 36 18 bc 8e 47 0f 3e d6 b2 66 3d f2 4d af 3c
       -0.0092904 0.1399214 0.056322895 0.021399472
000240 71 9d de 3d a7 3e 27 bd f8 d5 85 be 57 ee 6f be
       0.10869873 -0.040831234 -0.26139808 -0.23430763
000250 1e d8 0c be ba f8 2a 3e ef cb 54 3e 39 35 9f bd
       -0.13754317 0.16696444 0.2078092 -0.07773823
000260 bf a0 22 bd 72 cf 92 bd 34 96 62 3e 8e 2e e2 3c
       -0.03970408 -0.07168473 0.2212761 0.02761009
000270 60 0d d7 bc f7 82 83 3d a5 16 0a 3e 70 5a d7 bd
       -0.026251495 0.06421464 0.134852 -0.105152965
000280 a1 85 25 bd 2f ed 2b be 73 38 01 bd b2 73 97 bd
       -0.04041064 -0.16789697 -0.031547975 -0.07395114
000290 62 70 c6 3d 85 4c 4c bd dd 36 62 bd 94 12 b7 bd
       0.09689404 -0.049877662 -0.055228103 -0.0893909
0002a0 1e 18 a1 3d 84 ce 88 3a 16 1d 43 3d 51 cb 78 3c
       0.07865928 0.0010437523 0.04763516 0.015185193
0002b0 8f ef 02 bc 5e 36 46 bc 14 7e 5d bd 4b 57 81 3d
       -0.0079916855 -0.012097923 -0.054075316 0.06315478
0002c0 03 05 70 3d e4 d1 20 be 7c 4e 6d bd 82 81 9e be
       0.05859853 -0.15705067 -0.057936177 -0.30958182
0002d0 af 0f 4d bc 7d 2f 9c 3d 83 f9 99 bd 95 fa 0b 3d
       -0.012515946 0.07626245 -0.07518294 0.03417452
0002e0 70 41 b8 3c bf 71 ef bd b6 d2 21 3c f1 10 2d bd
       0.02249214 -0.11691617 0.009876898 -0.042252485
0002f0 2d d4 98 bd fd 70 cb bd 26 39 4e bd 02 2f e2 bd
       -0.07462344 -0.0993366 -0.05034747 -0.11044122
000300 32 55 fe bc bf 84 54 bd 37 1d d7 bd 36 f2 5c 3c
       -0.031046484 -0.05188441 -0.10503619 0.013485482
000310 e1 39 89 3d 03 24 b8 bd 97 f4 61 3e 36 c8 67 3e
       0.06700493 -0.08991244 0.2206596 0.22634968
000320 3a 5b 89 3e cc 99 ac bd 10 0c da bc 65 2d 62 3d
       0.26827413 -0.08427772 -0.02661708 0.055219073
000330 c7 a3 84 3d 03 67 86 bd dd 24 84 3d 2d 75 46 bd
       0.064765505 -0.06562617 0.064523436 -0.04845159
000340 cd 21 3d be 42 e5 41 3d 4b f2 01 be a3 89 98 3d
       -0.18469925 0.047337778 -0.12690084 0.07448127
000350 cc 15 cd 3c d4 92 80 bc 41 5c 1d be c5 b8 ef 3d
       0.025034808 -0.015695013 -0.15367223 0.11705164
000360 d2 62 a9 be d9 69 c8 3c 15 9a 05 3d c4 69 13 bd
       -0.33083206 0.024464535 0.032617647 -0.035989538
000370 79 47 b2 bd 6b c9 e3 bd a8 68 9a 3d 3a ee 69 bb
       -0.087050386 -0.11122402 0.07539493 -0.0035694973
000380 18 62 11 3e 6e 34 4b 3e 37 53 56 3e fb 40 eb 3d
       0.14197576 0.19844219 0.20930181 0.114870034
000390 96 32 95 bd 6f 46 a3 3b 67 bb 07 bc 42 c4 f4 bc
       -0.07285039 0.0049827616 -0.008284426 -0.02987874
0003a0 2e 2d c4 3c e7 17 85 bc 6c 73 c5 bd 6d 89 b0 3d
       0.023947325 -0.01624675 -0.096411556 0.08619962
0003b0 4d 97 03 3e 09 c3 30 3d 44 b4 eb 3d 02 ae 4e 3b
       0.12850685 0.04315475 0.11508992 0.0031536822
0003c0 bb 6a 80 3e 7e 8a a9 3d 51 15 e9 3d 18 07 02 3e
       0.2508143 0.082783684 0.11381019 0.12698019
0003d0 72 b4 41 3d 3c 59 14 bd 46 b9 17 bd e6 16 3e 3e
       0.047291227 -0.036217913 -0.037041925 0.18563423
0003e0 e8 a9 81 bc 3f 61 c7 bd e0 27 0f 3c 0a 35 c4 3c
       -0.015828088 -0.09735345 0.008737534 0.023951072
0003f0 37 0a e4 bd 32 7f 74 3c fd 7b 98 bd 17 b1 0a be
       -0.11134761 0.014922904 -0.07445524 -0.13544117

fc3.bias f4 [64]
000000 a2 83 95 bd 07 78 3e 3e cb f1 11 3e 6e c8 61 bd
       -0.073004976 0.18600474 0.14252393 -0.055122785
000010 b0 7b 76 3e c7 e0 4b 3e c7 a6 e6 bd a7 9a ca 3d
       0.2407062 0.19909965 -0.11262279 0.09892779
000020 fc ba 1e bd a9 1c bb 3d 3c 39 29 3e 2d 47 8e bd
       -0.03875254 0.09136326 0.1652574 -0.069471695
000030 ed 0f 7b 3e 4f 46 df bd 16 88 e0 bd d2 88 d6 3d
       0.24517794 -0.10902082 -0.10963456 0.10475315
000040 09 aa 94 bd ef c6 88 3d f2 64 35 3c 9a e0 e3 3d
       -0.07258994 0.066785686 0.0110714305 0.11126824
000050 77 78 36 3e 71 61 8d 3e 93 c3 3e 3d 34 c8 52 3d
       0.17819391 0.27613404 0.046573233 0.05146046
000060 29 d0 b4 3b 74 09 41 3d 5c ec a2 3e ed 61 d3 3d
       0.0055179787 0.047128156 0.31820953 0.10321412
000070 b7 36 6e 3e e0 7e b2 bd d2 36 26 3e 24 74 45 3d
       0.2326306 -0.08715606 0.1623185 0.048206463
000080 80 01 2c 3e ca 01 a0 bd 03 4d c2 3b 87 36 56 bd
       0.16797447 -0.07812841 0.0059295907 -0.052298095
000090 9c 88 23 3e ee 1c 29 3e cf e0 12 be e9 2e eb 3d
       0.15970081 0.16514942 -0.1434357 0.11483557
0000a0 55 56 75 3e 41 4c 10 3c b4 e8 46 3d 06 97 3b 3e
       0.23958714 0.008807243 0.048561767 0.1831933
0000b0 f6 b2 e8 bd 8f a0 49 3e 2b 12 2b bd a1 6d f1 3d
       -0.11362259 0.19690154 -0.041765373 0.11788488
0000c0 77 a3 57 3d 70 54 a7 bc 3b 53 8b 3c be 03 91 bd
       0.052646127 -0.020426005 0.01700746 -0.07080792
0000d0 1e c7 ac bc af 88 0d be f6 0c 5d bc 73 6f 1e bd
       -0.02109104 -0.13821672 -0.01349186 -0.038680505
0000e0 65 ea 95 3e 65 ce 1d be 14 90 c4 bd 82 91 e5 bb
       0.2928039 -0.15410765 -0.09597793 -0.0070058713
0000f0 f2 79 cf bd ac 2e 3f 3e 48 61 48 3e 54 e2 9a bd
       -0.10130681 0.18670148 0.1956836 -0.075627

fc4.weight f4 [4, 64]
000000 17 e3 43 bd 05 d5 09 3e 2b 5a 4d 3e 38 d0 4b be
       -0.04782399 0.13460167 0.20053928 -0.19903648
000010 59 d1 e4 3d fd c1 54 3e c9 de bd be 7a b6 1f 3e
       0.111727424 0.20777126 -0.37084034 0.15596953
000020 29 89 88 be 2a 95 d8 3c 1e 81 ae 3d b8 20 4c 3e
       -0.26667145 0.026438314 0.08520721 0.19934356
000030 0c 56 b1 3d 52 07 9e bd 85 58 2c 3c ac f6 1c 3d
       0.0865899 -0.0771624 0.010519152 0.038321182
000040 4e 8f 46 bd fe b0 67 be df 63 1b be ff e7 c5 3d
       -0.04847651 -0.22626111 -0.15174817 0.0966339
000050 e7 4f 25 3e c8 64 27 3e da c9 bc bc 57 72 55 3e
       0.16143762 0.16347039 -0.02304547 0.20844398
000060 21 fa 41 3e a1 9e 87 be b3 9d 0b 3e 83 92 19 3d
       0.18943073 -0.26488212 0.13634376 0.03749324
000070 de 10 f5 3d cb 61 37 be 0c c8 1c 3e f0 7a e3 bd
       0.11966108 -0.17908399 0.15310687 -0.11107433
000080 07 f2 e5 3e 4f e2 7d 3d bd 0d 85 3c 8d d3 82 bd
       0.44911215 0.061983403 0.016241902 -0.06388006
000090 bb 22 3c 3e f3 02 75 3d ee b5 de bd 7b 5f c4 3d
       0.18372624 0.059817266 -0.10874544 0.09588524
0000a0 74 f4 43 3e c8 62 a9 bd f9 7e cc 3e aa 1d 0c 3e
       0.1913622 -0.08270794 0.39940622 0.13683191
0000b0 cd 21 00 be 87 24 51 3e b0 51 49 bd 79 b6 d0 bd
       -0.12512894 0.2042409 -0.04915017 -0.10191054
0000c0 e2 c2 d7 3e 93 b1 30 3e a3 28 bb 3e 07 9a d1 be
       0.4214087 0.17255239 0.3655444 -0.40937826
0000d0 92 c3 5b bd 47 db fa 3d 35 93 d8 3d d6 26 cb be
       -0.053653307 0.12248855 0.105749525 -0.39678067
0000e0 c2 47 a9 3d b7 85 6a be 1d e9 eb bd 44 45 bd be
       0.0826564 -0.2290257 -0.11519072 -0.36966908
0000f0 eb 2d f1 bc 50 0f 16 3e c1 9d 17 3e 45 1f 8f be
       -0.02944084 0.14654279 0.14806272 -0.27953544
000100 03 2d 8e bd b4 04 b6 3d ca 06 22 be ff 50 71 be
       -0.06942179 0.08887616 -0.15822902 -0.23566054
000110 d8 b5 f7 bc 5f 37 11 3e 73 e2 b3 3d 2e 71 22 3e
       -0.030238077 0.14181279 0.08783426 0.15863487
000120 c4 03 df bd 81 7f c8 bd ca 41 b3 3d 33 e4 b4 3e
       -0.1088939 -0.097899444 0.08752783 0.35330352
000130 64 bf 9b bb 69 e9 76 3e 93 56 0e bb 03 53 08 be
       -0.00475304 0.24112476 -0.0021719083 -0.13312916
000140 08 4d 92 3e bf c0 6d 3e bf da d9 bd 99 fa c6 3e
       0.28574395 0.23218058 -0.10637426 0.38863066
000150 ff 43 43 3e 4e 8b fd 3d b3 ef 9b 3d 8e fd 30 3e
       0.19068907 0.12380086 0.076140784 0.17284223
000160 cb 21 70 3e 29 7a 58 3d b1 f6 91 3e 73 fd 0f bd
       0.23450391 0.052850876 0.28508523 -0.035153817
000170 c6 bd 27 3e ab 2b 8e be 89 8b 8b bd 98 a7 88 3e
       0.16380987 -0.2776769 -0.068137236 0.26690364
000180 b3 71 37 3e ef 77 6c be c1 b2 6c 3e fd 09 ad 3d
       0.17914467 -0.23092626 0.23115064 0.08449171
000190 8b c1 02 bd 0a 41 05 be 75 f4 fd be 40 fd 93 bc
       -0.03192286 -0.13013092 -0.49600568 -0.018065095
0001a0 bd 5e 1a 3e ec a9 ce 3e 84 b6 7c 3e 94 f9 73 3c
       0.15075202 0.40364015 0.24678999 0.014891047
0001b0 dd f1 98 bd 07 f9 26 3e e2 1f d0 bd d4 11 2c 3e
       -0.07468007 0.16305934 -0.10162331 0.16803676
0001c0 96 14 92 3e 82 42 ff 3e c1 3d ff 3d 39 0e b6 3e
       0.2853133 0.4985543 0.124629505 0.35557726
0001d0 50 e9 63 3e 6e 8e 6c 3d c2 cd a5 bc 9e 2e 8f 3c
       0.2225697 0.05775302 -0.020239715 0.017478283
0001e0 1d e4 93 3e bd 86 2c be b9 99 ec be f2 1a 1f be
       0.28884974 -0.16848274 -0.4621103 -0.15537623
0001f0 cd 1f ee bd 30 dc 01 3d df fd fa bc 1a 24 f8 bd
       -0.11627159 0.031704128 -0.030638633 -0.12116261
000200 ba b5 c6 3e b2 b3 80 3e a5 fc 1f 3d f7 4b c6 be
       0.3881052 0.25137097 0.0390593 -0.38729832
000210 6b 35 b9 3d f1 64 72 3e ad 73 92 be 7c 64 b5 3d
       0.09043392 0.23671319 -0.2860388 0.088570565
000220 36 57 33 be 35 18 65 3d d9 8a 02 3e fd 61 bf 3e
       -0.17513737 0.05593129 0.12748279 0.37379447
000230 ca bb f2 3d a2 60 68 3e 76 a3 24 bc c4 89 25 3e
       0.11852224 0.22693112 -0.010048738 0.16165835
000240 25 63 d5 3d d2 d4 20 be 28 2f 1b be 1c 85 81 3e
       0.10419301 -0.15706185 -0.15154707 0.25296867
000250 50 24 a8 bc 50 d7 1d 3e 81 8e 68 3e a7 26 ae be
       -0.020525128 0.15414166 0.22710611 -0.34013864
000260 2e 03 82 be 27 61 43 be 93 56 98 3e ab 50 3c 3e
       -0.2539305 -0.1908003 0.2975355 0.18390147
000270 ef 34 e0 3d 24 bd 8c be 71 12 42 3c 39 9f 4d 3e
       0.10947596 -0.27488053 0.011845217 0.2008027
000280 fa cf bd 3e d5 52 bd be 1b b2 f0 bd e0 c9 60 3e
       0.37072736 -0.36977258 -0.11752721 0.21952009
000290 e6 f4 5d bd ee a2 ae 3e 63 e7 34 3e 5e 6e 13 bd
       -0.05418863 0.3410868 0.17666392 -0.035993926
0002a0 ec e3 15 3e 40 01 26 3e 79 e1 11 3e f7 b4 e2 3d
       0.14637727 0.16211414 0.14246167 0.110696726
0002b0 93 67 8b bd 1a cd 39 3e 25 8a 8a 3c 89 56 af 3e
       -0.068068646 0.18144646 0.016911576 0.3424571
0002c0 23 c1 87 bd cf 29 13 be 74 b6 ac 3d 5b 36 10 3d
       -0.06628635 -0.14371417 0.08433238 0.035208087
0002d0 51 9c 2b be 14 f4 cc bd 25 89 99 be 6f f3 fc bd
       -0.16758849 -0.10007492 -0.29987445 -0.12351119
0002e0 74 4d 81 3e c0 8b 4b 3d 5c b3 98 be e7 fb 18 3e
       0.25254405 0.049693823 -0.2982434 0.14939843
0002f0 d7 92 d8 be 10 49 98 bd 8c cd 4c 3d c5 ca 21 be
       -0.4229953 -0.074358106 0.050000712 -0.15800007
000300 0b 1b 37 be 72 48 72 3e 45 68 62 be 15 2b b7 3d
       -0.1788141 0.23660448 -0.22110088 0.08943764
000310 0f 38 4c 3e 72 84 ad bc 1b e7 4b be ef db 87 bd
       0.1994326 -0.021181319 -0.19912378 -0.06633746
000320 c1 56 b4 3d 59 ae 0e 3e fc ea 1a ba ae 96 e9 3d
       0.088056095 0.13933696 -0.0005909649 0.11405693
000330 89 1d 1e 3e 09 13 31 3e 18 3b af 3c 6e 9d 00 3e
       0.15440954 0.17292418 0.021390483 0.12560055
000340 dd 91 c3 be d1 c4 49 3e dc c6 7e bd 7e d7 cd 3d
       -0.38197222 0.19703986 -0.062201366 0.100508675
000350 ae 46 97 3e 12 70 57 3e 4a df 0e 3e 48 a1 3c 3e
       0.29546112 0.21038845 0.13952366 0.18420899
000360 8f ac 88 be 44 66 9f bd 63 85 2f 3e 8f 0f fd bc
       -0.26694152 -0.077831775 0.17140727 -0.030891208
000370 67 2c 33 3e 9c c7 44 3e bf 7c 73 3d e4 32 86 3e
       0.17497407 0.1921677 0.05944514 0.262107
000380 3a 19 f9 3e c4 e7 a8 bd cc c8 4d 3e 1e 3e b5 3d
       0.4865206 -0.08247331 0.20096129 0.088497385
000390 1e ac c2 3c 0c aa 4c 3e ea f6 d3 be 80 0e 9e be
       0.023763712 0.19986743 -0.41399318 -0.30870438
0003a0 62 39 a5 bd 15 9e 88 3e f1 d1 73 3e 9e c3 42 3b
       -0.080675855 0.26683107 0.23810555 0.0029718648
0003b0 b2 5a 26 3c fb 24 53 bd 5c 8c 45 3e 8c 6b 55 3c
       0.010153459 -0.05154894 0.19291824 0.013026129
0003c0 c6 aa 9c 3e 12 c9 a1 3e b0 af 45 bd 99 ee 79 bd
       0.3059904 0.31598717 -0.04826325 -0.06101856
0003d0 f5 ff c5 3e e0 6b b3 be f3 3b 96 3e 57 d8 0d be
       0.38671842 -0.3504324 0.29342613 -0.13852058
0003e0 cf c0 58 3e a6 30 db 3d 89 95 0c be 35 30 64 be
       0.211673 0.10702638 -0.13728918 -0.22284015
0003f0 06 45 6b 3e bd 25 06 3e 3b d8 44 3e 06 90 10 3d
       0.22975549 0.13100334 0.1922311 0.0352936

fc4.bias f4 [4]
000000 ff b1 eb 3d b0 98 54 3e a1 91 c1 bc cf 5e 12 3e
       0.115085594 0.2076137 -0.023629012 0.14293979
